model/CNN_best.pth (torch, 303751 bytes, 10 tensors)

conv1.weight f4 [32, 1, 3, 3]
0.19930087 -0.29659402 -0.34628522 -0.060336214 0.048256338 -0.2446512 0.2707057 0.35496354
0.12937443 -0.1408087 -0.125178 0.27881375 -0.07931128 0.02868265 0.37748864 -0.38110662
-0.31804502 0.34990734 0.19975278 -0.13011535 0.1928345 0.2952793 0.04223564 0.28248522
-0.27453652 0.27388096 -0.059006765 0.20190665 0.16173993 -0.30794206 0.2131362 0.088928215
-0.20573795 0.31012127 0.25517714 0.24498385 -0.07722892 0.037160203 -0.22748072 0.34392703
0.22178134 -0.153998 -0.02264043 0.36509943 0.1564782 -0.03043341 -0.304177 -0.27610806
0.037841056 0.25459787 0.028581297 -0.23422146 0.056293186 0.34208322 -0.23713066 -0.18256631
-0.23011541 0.32715526 -0.21136612 0.035918172 0.42146957 -0.072929636 0.08067345 -0.36008525
-0.08437625 0.15194927 0.2604505 0.27196002 -0.09890671 -0.19185387 0.21163882 0.36696914
0.1872702 0.055133622 -0.014293802 0.16660668 -0.24976927 0.11692573 0.24641082 -0.039588474
-0.42793182 -0.3144825 0.03592055 0.13257788 0.109657034 -0.07601048 -0.22934486 0.3776598
0.35225052 -0.20114858 0.06465111 0.038658977 0.3507191 -0.38763112 -0.22935092 -0.36722368
-0.16633868 0.16287059 -0.19775859 0.28340834 -0.024779566 0.1852189 -0.14846236 0.05189944
-0.1578399 -0.41313064 -0.3891632 -0.11515794 -0.0408755 -0.065815926 0.12078828 -0.23899682
-0.38011673 -0.141307 0.22846465 0.0019107626 -0.30514917 0.29755312 0.36728176 -0.23546514
0.045301337 -0.101401314 -0.28171232 0.15958284 -0.32832685 -0.024146402 -0.22979751 -0.11438622
0.28876802 -0.3545708 -0.12332761 0.3334064 -0.036947634 -0.0087269135 0.08082182 0.32508558
0.16160236 -0.20180477 -0.11115802 0.08993399 -0.24016477 0.1268755 -0.09171247 -0.33760306
-0.32717478 0.25779063 0.3572167 0.21558203 0.30341864 0.25840506 -0.3038318 -0.040076353
-0.37388426 0.090704985 -0.053886265 0.07690383 0.10477009 -0.24384741 -0.25197974 -0.03374312
0.3124874 0.41721636 -0.13828559 -0.11978022 -0.14686061 -0.023521496 -0.15400481 -0.046574656
-0.2948897 -0.33483082 -0.1123384 -0.30241656 -0.27647474 -0.17064652 0.08632364 0.31081563
-0.072605036 -0.11659307 -0.11193693 0.086991884 -0.27056983 0.032530535 0.16709742 0.29637006
-0.12236993 0.2508939 0.19101547 -0.36126208 0.17398605 0.089888416 -0.31947553 -0.34473142
0.1752439 -0.27493078 0.12608734 -0.17560509 -0.13681287 0.32509524 -0.31952006 -0.048220694
-0.22302929 -0.09945109 0.19509831 -0.24107586 0.41094416 0.13718837 -0.092738494 -0.17573324
-0.20255478 -0.34732756 0.03160925 -0.21949688 -0.08574196 0.21149288 -0.107419975 0.26214692
-0.29359013 -0.16916381 -0.0895071 -0.055105627 0.04246277 0.36222604 -0.36839634 -0.16356502
0.34664074 0.27040097 0.08607794 0.35095102 0.23964761 0.21018726 0.27715024 0.012849252
-0.1051042 -0.24552631 0.42311653 -0.01909378 -0.16269232 0.077643745 -0.27618435 -0.17175765
0.13245769 -0.14922822 -0.018423649 0.33779454 -0.23745668 -0.28124487 0.12528953 -0.03249465
-0.40495864 -0.30513713 0.3029856 -0.032974843 -0.15201494 -0.16150571 -0.38474372 0.26712415
00000000: 8715 4c3e 2cdb 97be 4c4c b1be 1b23 77bd
00000010: 70a8 453d d885 7abe f099 8a3e c8bd b53e
00000020: bb7a 043e 2830 10be a92e 00be adc0 8e3e
00000030: f46d a2bd e0f7 ea3c 3146 c13e 6820 c3be
00000040: ccd6 a2be 0e27 b33e fe8b 4c3e f53c 05be
00000050: 6876 453e d92e 973e 47ff 2c3d e7a1 903e
00000060: 0d90 8cbe 203a 8c3e 14b1 71bd 9ec0 4e3e
00000070: 279f 253e 95aa 9dbe 6040 5a3e ff1f b63d
00000080: f8ac 52be 37c8 9e3e 94a6 823e 0cdd 7a3e
00000090: 322a 9ebd 4c35 183d b5f0 68be 3417 b03e
000000a0: a61a 633e a7b1 1dbe 6c78 b9bc 50ee ba3e
000000b0: d23b 203e 7d4f f9bc 16bd 9bbe 095e 8dbe
000000c0: 39ff 1a3d a75a 823e 5323 ea3c c0d7 6fbe
000000d0: af93 663d 8825 af3e 61d2 72be aaf2 3abe
000000e0: 60a3 6bbe e580 a73e 5c70 58be ef1e 133d
000000f0: dcca d73e 225c 95bd 1f38 a53d 185d b8be
00000100: 75cd acbd 9798 1b3e c559 853e 583e 8b3e
00000110: 9a8f cabd 5775 44be d9b7 583e 61e3 bb3e
00000120: c2c3 3f3e cbd3 613d 8d30 6abc f19a 2a3e
00000130: 84c3 7fbe c276 ef3d 1e53 7c3e 8627 22bd
00000140: e119 dbbe da03 a1be 6d21 133d 7fc2 073e
00000150: de93 e03d 62ab 9bbd 61d9 6abe a05c c13e
00000160: 2e5a b43e e5f9 4dbe cd67 843d e058 1e3d
00000170: 7491 b33e 9677 c6be f8da 6abe be04 bcbe
00000180: b054 2abe 8cc7 263e 3a81 4abe e61a 913e
00000190: 84fe cabc 06aa 3d3e 8406 18be 8294 543d
000001a0: c8a0 21be dc85 d3be 6640 c7be edd7 ebbd
000001b0: 116d 27bd 80ca 86bd d95f f73d 95bb 74be
000001c0: a99e c2be c8b2 10be a3f2 693e 8e72 fa3a
000001d0: 833c 9cbe e258 983e 5b0c bc3e c61d 71be
000001e0: e58d 393d 7eab cfbd 993c 90be af69 233e
000001f0: 751a a8be adce c5bc 0a50 6bbe 5343 eabd
00000200: 67d9 933e 4e8a b5be 3093 fcbd 3eb4 aa3e
00000210: 6756 17bd 54fb 0ebc e985 a53d 9e71 a63e
00000220: 177b 253e e9a5 4ebe d1a6 e3bd 502f b83d
00000230: c1ed 75be a7eb 013e bfd3 bbbd 4fda acbe
00000240: 7483 a7be 22fd 833e 1be5 b63e 89c1 5c3e
00000250: b059 9b3e ab4d 843e d78f 9bbe 1a27 24bd
00000260: c26d bfbe 89c3 b93d d8b7 5cbd c17f 9d3d
00000270: b391 d63d 23b3 79be 7d03 81be 3a36 0abd
00000280: 59fe 9f3e 629d d53e bd9a 0dbe 554f f5bd
00000290: a162 16be 27b0 c0bc 70b3 1dbe 11c5 3ebd
000002a0: c8fb 96be f26e abbe ad11 e6bd 58d6 9abe
000002b0: 198e 8dbe f6bd 2ebe 73ca b03d 3a23 9f3e
000002c0: f3b1 94bd 59c8 eebd 303f e5bd cd28 b23d
000002d0: 2188 8abe bd3e 053d 961b 2b3e d1bd 973e
000002e0: 169d fabd 2a75 803e 8f99 433e 58f7 b8be
000002f0: 6629 323e 6b17 b83d 4c92 a3be a380 b0be
00000300: 2373 333e bac3 8cbe 0a1d 013e d2d1 33be
00000310: ac18 0cbe e272 a63e 2298 a3be 1083 45bd
00000320: ca61 64be 03ad cbbd dac7 473e 97dc 76be
00000330: 4667 d23e 1c7b 0c3e aeed bdbd 6af3 33be
00000340: 856a 4fbe ebd4 b1be b378 013d cac3 60be
00000350: 7b99 afbd 9791 583e 01ff dbbd 1f38 863e
00000360: 7251 96be 4739 2dbe 804f b7bd 70b6 61bd
00000370: 71ed 2d3d b175 b93e 729e bcbe 977d 27be
00000380: e57a b13e ff71 8a3e a249 b03d daaf b33e
00000390: 2f66 753e 543b 573e a3e6 8d3e ab85 523c
000003a0: df40 d7bd 406b 7bbe bba2 d83e 8f6a 9cbc
000003b0: d198 26be af03 9f3d 0968 8dbe 3de1 2fbe
000003c0: fda2 073e 48cf 18be 31ed 96bc 68f3 ac3e
000003d0: d827 73be 54ff 8fbe e64b 003e 1c19 05bd
000003e0: bd56 cfbe ef3a 9cbe ee20 9b3e a110 07bd
000003f0: cea9 1bbe c161 25be 21fd c4be 7fc4 883e

conv1.bias f4 [32]
-0.15351994 -0.20204337 0.18520798 0.11709192 0.04125413 -0.13522315 -0.23547024 0.015055252
-0.035567723 0.034799483 0.082149334 0.16271445 0.065694734 -0.14811607 -0.07214203 -0.038913492
-0.27737364 -0.24542564 0.31601393 -0.05168177 -0.06636338 -0.030979987 0.016304936 0.06446673
-0.039519116 -0.055747952 -0.16542588 0.29402396 0.006263044 0.17316523 0.121901765 -0.25366917
00000000: 5534 1dbe 75e4 4ebe 29a7 3d3e e3cd ef3d
00000010: 17fa 283d f077 0abe 1c1f 71be 4eaa 763c
00000020: 76af 11bd e789 0e3d e93d a83d 9e9e 263e
00000030: f68a 863d bdab 17be 33bf 93bd c163 1fbd
00000040: eb03 8ebe dc50 7bbe 94cc a13e 43b0 53bd
00000050: 86e9 87bd bec9 fdbc ee91 853c 2207 843d
00000060: ccde 21bd f757 64bd 6765 29be 4f8a 963e
00000070: 393a cd3b 3a52 313e a2a7 f93d ede0 81be

conv2.weight f4 [32, 32, 3, 3]
-0.042528 0.034835644 0.004466874 -0.052137863 -0.045642633 0.008576412 -0.021642996 0.011712239
0.0007533054 -0.026284045 0.011879407 -0.025386695 0.062923 -0.039847583 0.028466076 -0.031116018
0.041723702 -0.019507678 0.051452246 -0.0010371642 0.066848256 -0.0054248013 0.020732243 0.05746781
-0.00035632902 0.03153246 -0.0075492808 -0.013275364 0.06426426 -0.023010423 0.051742617 0.041022036
0.031199742 -0.009597682 0.034954052 -0.014085543 0.04642103 0.05773632 0.0001184717 0.05002757
0.03759487 -0.00015928234 -0.04357472 0.022832144 0.03170546 -0.050267797 -0.06268355 -0.018174233
0.008462665 -0.06683102 -0.03007046 -0.04730799 0.003754308 0.02233079 0.04320354 -0.005075672
-0.012744968 0.030549493 0.034871697 -0.01537996 -0.012722511 0.04678606 -0.02082698 0.0042180396
0.04057258 -0.04011878 0.045922942 0.040120896 -0.00072960433 -0.025060708 -0.020403685 -0.011076654
0.011794047 0.05688621 0.07634488 -0.007137492 0.037975397 0.008124012 0.035612457 -0.037205685
0.042441133 0.03575205 0.015097362 0.008360298 -0.027266927 0.0011388208 -0.0013668372 -0.024756316
-0.049691413 0.032207627 0.023813661 0.031783134 0.002241645 -0.01034714 -0.0076343366 -0.047773875
-0.04295206 -0.05543744 0.019546097 -0.032751072 -0.028418588 -0.06349678 0.037101116 0.024084127
0.045133315 -0.07642474 -0.06253445 -0.05475469 0.03328789 0.03919936 0.023194509 0.026446076
-0.007868974 -0.006018814 -0.0031261458 0.026305472 -0.00032549404 0.032750867 0.02873645 -0.038807936
0.057734583 -0.043034192 0.032329004 -0.0339647 0.01903152 -0.028504828 -0.040923096 0.038388148
0.033406552 0.045189228 0.026378091 -0.026490165 -0.04908947 -0.016509004 0.0039743576 -0.014733294
-0.001087355 0.060700618 -0.014357222 0.004457807 -0.0035673107 0.030625753 0.0011587857 -0.02983085
0.051623017 0.031860117 0.084151916 -0.018967994 0.014918463 -0.020338368 0.050797373 -0.0061731716
-0.069773756 0.06543384 0.06848828 0.027730279 0.0021131826 -0.015495336 0.046911117 0.057553805
0.029933061 0.012775972 -0.046796225 -0.03462881 -0.045875955 0.04399508 -0.05880387 0.04552675
-0.056531955 0.012945978 -0.028959407 -0.0612095 0.010371506 -0.031989854 0.027248856 -0.05339924
-0.021072023 0.015132988 -0.047310933 -0.019234512 -0.020398503 0.04948497 0.054644886 0.032739263
0.0009164808 0.016681163 0.045472704 0.010099696 -0.0007526375 -0.0016592974 0.019425312 -0.060876284
-0.022410039 0.028213704 -0.061426252 0.008920661 0.049714554 0.044810068 0.019176466 -0.07315748
-0.0043775905 0.008289109 0.007626231 0.04104007 -0.011490769 -0.014819295 -0.013221161 -0.07575602
-0.038473964 0.008356905 -0.0248583 -0.076151066 -0.048277054 -0.055981886 0.024935259 -0.059895143
-0.00034217036 -0.053221233 -0.021584727 -0.010223639 -0.054536 -0.0171017 -0.031573556 0.008968195
-0.032696083 0.012702172 0.04941667 0.05578834 -0.015864406 0.052697 0.06420261 -0.032435317
-0.018053941 0.0032764236 0.015563638 0.042071514 0.004976643 -0.013662782 -0.01979601 0.01592941
0.04374733 0.044358205 0.050187957 -0.006018787 0.0005422411 -0.06437213 -0.020166043 0.034289017
-0.046001934 -0.026504742 -0.0062998543 0.07598622 -0.027905932 0.017577788 0.036623336 0.023210576
00000000: d731 2ebd d2af 0e3d db5e 923b 838e 55bd
00000010: c5f3 3abd 1484 0c3c a74c b1bc b1e4 3f3c
00000020: 7879 453a a351 d7bc d8a1 423c c2f7 cfbc
00000030: c6dd 803d 3837 23bd b031 e93c 05e7 febc
00000040: 79e6 2a3d 91ce 9fbc 97bf 523d 75f1 87ba
00000050: bde7 883d 88c2 b1bb aad6 a93c 5e63 6b3d
00000060: acd1 bab9 2e28 013d f55f f7bb ea80 59bc
00000070: fb9c 833d 5b80 bcbc 11f0 533d b906 283d
00000080: 9a96 ff3c 993f 1dbc fb2b 0f3d 0dc7 66bc
00000090: fa23 3e3d eb7c 6c3d 0274 f838 b6e9 4c3d
000000a0: 14fd 193d 0705 27b9 687b 32bd 7a0a bb3c
000000b0: 96dd 013d 9be5 4dbd 3c60 80bd 21e2 94bc
000000c0: fda6 0a3c b4de 88bd 5356 f6bc 06c6 41bd
000000d0: d60a 763b 10ef b63c 32f6 303d d351 a6bb
000000e0: 45d0 50bc ee42 fa3c a0d5 0e3d 3afc 7bbc
000000f0: 1472 50bc bda2 3f3d 589d aabc 7b37 8a3b
00000100: 6f2f 263d 9753 24bd b219 3c3d cf55 243d
00000110: eb42 3fba 1d4c cdbc a125 a7bc db7a 35bc
00000120: d23b 413c 8401 693d b45a 9c3d 9fe1 e9bb
00000130: 178c 1b3d 931a 053c 5ede 113d fd64 18bd
00000140: c1d6 2d3d be70 123d ed5a 773c a2f9 083c
00000150: e45e dfbc 7c44 953a 7227 b3ba c2cd cabc
00000160: 3989 4bbd 25ec 033d de14 c33c 082f 023d
00000170: 90e8 123b 0d87 29bc 7529 fabb 8aae 43bd
00000180: 80ee 2fbd 5e12 63bd 231f a03c fd25 06bd
00000190: 19ce e8bc 9a0a 82bd 57f7 173d 134c c53c
000001a0: b6dd 383d 9384 9cbd 1012 80bd 7446 60bd
000001b0: e258 083d 828f 203d 6902 be3c 71a5 d83c
000001c0: deec 00bc 7939 c5bb 06e0 4cbb 937e d73c
000001d0: 12a7 aab9 c625 063d b468 eb3c 12f5 1ebd
000001e0: 197b 6c3d 9f44 30bd 6b6b 043d 921e 0bbd
000001f0: fde7 9b3c f582 e9bc fa9e 27bd e43c 1d3d
00000200: 4fd5 083d 5718 393d de16 d83c e701 d9bc
00000210: 0a12 49bd e43d 87bc 543b 823b ea63 71bc
00000220: 9485 8eba 36a1 783d 8e3a 6bbc cc12 923b
00000230: 8bc9 69bb dce2 fa3c 65e2 973a d45f f4bc
00000240: a872 533d c17f 023d d757 ac3d c462 9bbc
00000250: 926c 743c a69c a6bc e810 503d 5148 cabb
00000260: 8be5 8ebd 2d02 863d 9543 8c3d 9c2a e33c
00000270: 527d 0a3b 26e0 7dbc df25 403d 8abd 6b3d
00000280: 2e36 f53c 4f52 513c 66ad 3fbd f0d6 0dbd
00000290: 6de8 3bbd 2f34 343d 54dc 70bd 427a 3a3d
000002a0: 0d8e 67bd 5e1b 543c 473c edbc d0b6 7abd
000002b0: 40ed 293c cb07 03bd fe38 df3c 29b9 5abd
000002c0: 3c9f acbc 5af0 773c 1cc9 41bd b291 9dbc
000002d0: c31a a7bc c0b0 4a3d 51d3 5f3d 9b19 063d
000002e0: fc3f 703a efa6 883c 9641 3a3d 3279 253c
000002f0: a64c 45ba c87c d9ba d521 9f3c 6959 79bd
00000300: 4295 b7bc 6d20 e73c 189a 7bbd f727 123c
00000310: 7da1 4b3d c38a 373d f717 9d3c 97d3 95bd
00000320: e471 8fbb 0bcf 073c 76e5 f93b a219 283d
00000330: c743 3cbc a1cc 72bc 929d 58bc f925 9bbd
00000340: e096 1dbd 66eb 083c a2a3 cbbc 17f5 9bbd
00000350: 29be 45bd 434d 65bd 0745 cc3c 9c54 75bd
00000360: 5465 b3b9 82fe 59bd 74d2 b0bc 0d81 27bc
00000370: 2461 5fbd dd18 8cbc 4653 01bd 56ef 123c
00000380: 54ec 05bd c51c 503c 2269 4a3d 5082 643d
00000390: 12f6 81bc cfd8 573d a87c 833d e5da 04bd
000003a0: dce5 93bc 44b9 563b a1fe 7e3c 2e53 2c3d
000003b0: 1b13 a33b dcd9 5fbc 3e2b a2bc 657e 823c
000003c0: 6630 333d f3b0 353d e391 4d3d 3f39 c5bb
000003d0: 2f25 0e3a 89d5 83bd 4233 a5bc a472 0c3d
000003e0: 866c 3cbd 7920 d9bc 026f cebb aa9e 9b3d
000003f0: fb9a e4bc 4bff 8f3c 5a02 163d 1b24 be3c

conv2.bias f4 [32]
0.03273643 -0.06996699 -0.035438895 0.039593212 -0.023785582 -0.0055941716 -0.025756916 -0.01784984
-0.059293732 0.007299618 0.028410858 0.0030759608 -0.014713718 -0.0006488931 0.053210404 0.021757955
-0.025453946 0.026429404 -0.012225935 -0.040573664 -0.010695431 -0.027334204 -0.036118846 0.016706463
0.0203044 -0.018455574 -0.045595765 0.040027298 -0.04587972 -0.050964013 0.042534884 -0.017577054
00000000: a316 063d da4a 8fbd 6028 11bd 7e2c 223d
00000010: fbd9 c2bc 504f b7bb 2b00 d3bc d439 92bc
00000020: fcdd 72bd a231 ef3b e3bd e83c 0f96 493b
00000030: ce11 71bc 7b1a 2aba 27f3 593d bd3d b23c
00000040: cb84 d0bc 7a82 d83c 4a4f 48bc 9230 26bd
00000050: e43b 2fbc fbeb dfbc 5bf1 13bd fedb 883c
00000060: 6a55 a63c 2530 97bc a0c2 3abd aaf3 233d
00000070: 60ec 3bbd a4bf 50bd 0f39 2e3d c1fd 8fbc

conv3.weight f4 [64, 32, 3, 3]
-0.022271506 -0.022507677 -0.025175082 0.020209625 0.03465614 0.075514525 -0.045120183 0.037228335
0.027392635 -0.028158562 -0.020826502 -0.1489347 0.019200582 -0.047286447 -0.022962537 -0.022778912
0.0029024577 0.18851611 -0.0064935163 0.051740084 0.11770362 -0.04559013 0.021028688 0.17360622
0.08496372 0.0051444736 0.053461947 0.063658565 0.0071793385 0.11020954 0.045188874 0.012597922
0.12437052 -0.04010679 0.06334941 0.056642212 -0.04673639 -0.08798449 -0.029312037 0.014247565
0.044134423 0.09305762 -0.0379174 0.0707119 0.104146264 -0.10551567 -0.094013825 0.0021242804
-0.09736366 -0.019240912 0.10221202 0.040510647 0.08546042 0.06374828 -0.009459243 -0.014666057
-0.037319973 -0.03185677 0.045349702 -0.03571273 -0.0450973 0.009409593 0.022650694 -0.0031577356
0.07498314 -0.123945184 -0.09403675 -0.05298373 -0.111752436 -0.014628954 -0.0931715 0.017691636
0.03264123 0.006883086 -0.047998592 0.036547534 -0.046011563 0.0018122714 -0.019766835 0.029556368
-0.061836403 -0.039084755 -0.021267636 -0.027002392 -0.041153368 -0.051774282 0.019299598 -0.03892202
0.04276034 0.047985233 0.057620693 0.11427044 0.15487663 0.090066426 0.108846486 0.06886679
0.068757035 0.03544953 -0.050892957 0.023866195 -0.009701043 -0.13141395 -0.12089581 -0.08614923
0.056238137 -0.042626176 0.08731893 0.12594496 0.101229 0.050391413 -0.015888926 0.0871546
0.06340948 0.08210031 -0.040153258 0.017028987 0.106343605 -0.0061081555 -0.07575902 -0.032023378
-0.038209185 0.00640589 0.09212857 0.039391574 0.031032357 0.10854367 0.013914393 -0.016081296
-0.07803077 0.030761134 0.038225137 0.02552643 0.062336136 0.001503543 0.10111336 -0.037258998
-0.06405583 0.025767481 -0.12078668 0.025301037 -0.017253583 0.03651332 0.012764687 -0.075244024
-0.04668298 -0.007698397 0.044537727 -0.014081875 0.020107912 -0.055641454 -0.008984918 0.020748114
-0.028084163 -0.09689443 -0.08180652 -0.015176897 0.03262554 0.016719436 -0.060731307 0.018653646
-0.023477806 -0.07322107 0.060024273 0.060427446 0.04621526 -0.030932281 -0.06393483 0.08815735
-0.024841119 0.024592288 0.00630836 0.008078527 -0.026677689 -0.020046424 -0.0061269253 -0.00803772
-0.055970658 0.031246446 -0.06100137 -0.027440064 -0.06668874 -0.13775018 -0.019672716 -0.11473179
0.014986573 0.2311594 0.031088918 0.06484031 0.1630984 0.07518079 0.01007194 0.019601917
0.015331821 0.038017936 0.02768778 0.013541956 0.05446224 0.06529198 0.08042445 0.08598187
-0.09752058 -0.10257682 -0.0359318 0.0029718336 -0.040381324 -0.06971722 0.07056298 -0.10311141
-0.051218446 0.031495266 0.03898617 0.029476002 -0.13127379 -0.0031687154 -0.052029617 -0.032808326
-0.07082653 0.017552756 0.058569074 -0.0040105702 0.021946568 -0.083001405 -0.0004504985 0.013683301
-0.054929767 -0.01126728 0.0376036 0.07198173 -0.039443254 0.0018860284 -0.06852773 -0.028189778
0.0072102 -0.06430181 0.01609532 0.04212021 0.016818441 -0.042110424 -0.10521103 0.017263694
0.0202877 -0.06540226 0.009902113 -0.0056431233 0.011167659 0.05477458 -0.01845061 0.0035237416
0.07822359 -0.027581977 0.06033469 0.0041381386 0.037319954 -0.018013347 -0.05206233 -0.040096615
00000000: bc72 b6bc 0562 b8bc f93b cebc a88e a53c
00000010: 99f3 0d3d 5ca7 9a3d f1cf 38bd bd7c 183d
00000020: 8566 e03c c9ac e6bc 579c aabc 5782 18be
00000030: 8a4a 9d3c 6faf 41bd ee1b bcbc d79a babc
00000040: 2937 3e3b 5e0a 413e 90c7 d4bb 69ed 533d
00000050: 980e f13d b7bc 3abd 5b44 ac3c d4c5 313e
00000060: 7501 ae3d f992 a83b eafa 5a3d 6c5f 823d
00000070: a840 eb3b 8ab5 e13d f817 393d 8467 4e3c
00000080: f9b5 fe3d 0447 24bd 56bd 813d aa01 683d
00000090: a86e 3fbd 3631 b4bd cc1f f0bc 9e6e 693c
000000a0: 4cc6 343d fe94 be3d 474f 1bbd 67d1 903d
000000b0: a34a d53d 9918 d8bd 528a c0bd 8337 0b3b
000000c0: 9966 c7bd 1e9f 9dbc 8954 d13d 7eee 253d
000000d0: df05 af3d 758e 823d f1fa 1abc e749 70bc
000000e0: d4dc 18bd 3f7c 02bd 9cc0 393d 8347 12bd
000000f0: f2b7 38bd b22a 1a3c f38d b93c 03f2 4ebb
00000100: c390 993d f9d6 fdbd 5796 c0bd 7805 59bd
00000110: 76de e4bd 48ae 6fbc b3d0 bebd 0dee 903c
00000120: cfb2 053d 838b e13b 2c9a 44bd deb2 153d
00000130: 9f76 3cbd bd89 ed3a 0fee a1bc 3220 f23c
00000140: 2b48 7dbd 5617 20bd 7739 aebc 1f34 ddbc
00000150: 6f90 28bd 4511 54bd 311a 9e3c b26c 1fbd
00000160: 7725 2f3d 2a8c 443d ad03 6c3d 9f06 ea3d
00000170: fb97 1e3e bf74 b83d e8ea de3d 080a 8d3d
00000180: 7dd0 8c3d 8733 113d 2275 50bd 0a83 c33c
00000190: 20f1 1ebc 6191 06be 3998 f7bd 026f b0bd
000001a0: f659 663d c998 2ebd 44d4 b23d b7f7 003e
000001b0: 2651 cf3d 3a67 4e3d 7e29 82bc 1c7e b23d
000001c0: d4dc 813d 3524 a83d be77 24bd 6080 8b3c
000001d0: adca d93d ec26 c8bb 8c27 9bbd f22a 03bd
000001e0: 3c81 1cbd 80e8 d13b e7ad bc3d 0f59 213d
000001f0: 9237 fe3c 254c de3d 32f9 633c ecbc 83bc
00000200: 99ce 9fbd c6fe fb3c f691 1c3d ce1c d13c
00000210: 2d54 7f3d 8812 c53a 8514 cf3d e49c 18bd
00000220: b42f 83bd 5316 d33c 025f f7bd 1f44 cf3c
00000230: 6357 8dbc fe8e 153d fa22 513c 8a19 9abd
00000240: a736 3fbd d642 fcbb 316d 363d aab7 66bc
00000250: 59b9 a43c 4be8 63bd 7a35 13bc f3f7 a93c
00000260: c210 e6bc 9670 c6bd 2d8a a7bd 85a8 78bc
00000270: 5ca2 053d 33f7 883c 64c1 78bd 88cf 983c
00000280: 8754 c0bc eef4 95bd 03dc 753d c582 773d
00000290: 364c 3d3d b265 fdbc 44f0 82bd d78b b43d
000002a0: 9a7f cbbc c475 c93c 5cb6 ce3b cc5b 043c
000002b0: 2b8b dabc 6638 a4bc 60c4 c8bb a4b0 03bc
000002c0: 7d41 65bd 8cf8 ff3c 93dc 79bd fcc9 e0bc
000002d0: 1b94 88bd 620e 0dbe ad28 a1bc 80f8 eabd
000002e0: 3e8a 753c 0db5 6c3e 30ae fe3c ffca 843d
000002f0: 4403 273e 63f8 993d c704 253c 3394 a03c
00000300: 5132 7b3c b2b8 1b3d 7cd1 e23c 15df 5d3c
00000310: cc13 5f3d cdb7 853d 93b5 a43d 4317 b03d
00000320: dfb8 c7bd cc13 d2bd 392d 13bd 18c3 423b
00000330: e366 25bd e7c7 8ebd 5383 903d 132c d3bd
00000340: 6fca 51bd 2e01 013d f6af 1f3d a877 f13c
00000350: a36c 06be 39aa 4fbb 021d 55bd 0662 06bd
00000360: 800d 91bd ccca 8f3c 20e6 6f3d 1a6b 83bb
00000370: 4ac9 b33c a4fc a9bd e330 ecb9 ed2f 603c
00000380: 09fe 60bd 669a 38bc 3c06 1a3d 286b 933d
00000390: 408f 21bd 9d34 f73a 4458 8cbd 40ee e6bc
000003a0: 8b43 ec3b abb0 83bd 55da 833c 3e86 2c3d
000003b0: d4c6 893c fb7b 2cbd e178 d7bd 976c 8d3c
000003c0: 6432 a63c 9ff1 85bd 793c 223c f3e9 b8bb
000003d0: 8ff8 363c 4f5b 603d bc25 97bc 93ee 663b
000003e0: b133 a03d 99f3 e1bc 8221 773d 3999 873b
000003f0: cfdc 183d ba90 93bc 4f3f 55bd 593c 24bd

conv3.bias f4 [64]
-0.034340914 -0.021016471 0.0023606897 0.036437478 0.0001325225 -0.032439124 0.07317791 0.018511498
-0.03407259 -0.029028133 -0.0551491 0.046247073 -0.061085023 -0.050002743 -0.026764905 0.029770885
0.049092755 -0.029540278 -0.028886575 0.03668026 0.05319015 0.00979059 -0.013651855 0.0026443533
-0.05334984 0.055488344 0.0022879278 -0.013971347 -0.050872352 -0.048634306 0.07275545 0.02849156
-0.022627067 -0.010023138 0.028726652 0.056872886 0.005935016 0.04244129 -0.019110387 -0.018745337
0.015448212 -0.064333715 -0.010304371 -0.010872571 -0.05138992 -0.067812614 -0.0018440463 -0.037543096
0.07049019 0.032800928 0.0015488694 -0.0028300597 -0.041734684 0.031432055 0.036502905 -0.04169795
0.0013890043 0.048680104 0.007172957 -0.032033112 0.018584212 -0.020681543 0.059355058 -0.011559072
00000000: 0fa9 0cbd bc2a acbc cdb5 1a3b 773f 153d
00000010: bdf5 0a39 e3de 04bd 4dde 953d 6da5 973c
00000020: b38f 0bbd 68cc edbc 06e4 61bd 926d 3d3d
00000030: 4a34 7abd adcf 4cbd 1342 dbbc 12e2 f33c
00000040: 7c15 493d 74fe f1bc 8aa3 ecbc 0a3e 163d
00000050: eadd 593d b668 203c 08ac 5fbc e34c 2d3b
00000060: 5d85 5abd bf47 633d 0ff1 153b 14e8 64bc
00000070: 875f 50bd c434 47bd cf00 953d 2267 e93c
00000080: 665c b9bc 1638 24bc 2854 eb3c 8bf3 683d
00000090: 867a c23b ebd6 2d3d 638d 9cbc d28f 99bc
000000a0: 7f1a 7d3c 65c1 83bd aad3 28bc de22 32bc
000000b0: 3d7e 52bd 57e1 8abd edb3 f1ba cac6 19bd
000000c0: 295d 903d 445a 063d 6f03 cb3a 8678 39bb
000000d0: fdf1 2abd e6be 003d 1284 153d 78cb 2abd
000000e0: 400f b63a ca64 473d 200b eb3b 2735 03bd
000000f0: eb3d 983c 576c a9bc 4a1e 733d 4362 3dbc

conv4.weight f4 [64, 64, 3, 3]
0.011496531 -0.02494699 0.049625736 -0.037342235 -0.020229409 -0.029487453 -0.04147917 -0.074422844
-0.04775143 0.058555335 0.049604513 0.032575704 -0.0062621813 -0.01675237 -0.029129239 0.006548356
-0.06995169 -0.009604049 -0.019136727 0.020053906 0.001572985 0.0611273 -0.015165855 0.017696667
0.104418665 0.06527432 0.031828888 -0.040097043 -0.060623795 -0.049027026 -0.08592664 -0.019641554
-0.01689656 -0.07019977 -0.030144135 -0.04614915 -0.09373679 -0.027332839 0.022076067 0.03311855
0.020215265 0.031585705 0.05587497 0.018431054 0.021002097 0.10568014 0.043318633 0.053762563
0.053807244 0.03279563 -0.055708364 0.046882108 -0.016113006 -0.08361192 -0.06222936 0.01402067
-0.017552853 0.0037677365 0.036402334 0.03211702 -0.07938751 -0.061054092 0.0055651367 -0.014090018
-0.04347118 -0.02057385 0.034600317 0.03769771 0.036720384 0.03301508 -0.014554969 -0.030187417
0.052075192 -0.021701792 -0.014737283 0.07456154 0.04657943 -0.0034786155 0.0023901884 0.03357455
0.022416674 -0.06510163 -0.041277047 0.035609763 -0.037814002 0.0059150388 0.069991544 0.013282878
0.013794274 0.01977753 -0.07947055 -0.041085094 0.03128799 -0.02281201 0.048232354 0.021146543
0.031635955 0.015437136 0.033126436 0.00046211435 -0.03493447 -0.02323338 -0.0086394325 -0.035006206
0.017412713 -0.021835556 -0.03903841 0.06548172 -0.089535855 -0.015137922 -0.01721463 -0.02682715
0.04646076 -0.00019471234 0.019131048 0.094059326 -0.0011814821 0.016124321 -0.013961672 -0.008332798
-0.0046636006 0.022256726 -0.057392765 0.041114554 0.031707168 -0.023826431 0.058782015 0.020853618
-0.050870463 -0.03435158 -0.041429713 0.009732684 -0.037926205 -0.019941013 0.0030013968 -0.049243417
0.05922409 0.018982217 0.03375448 0.00041689424 0.01168701 -0.019076653 0.005302379 0.023287239
0.108567744 -0.0024500138 0.0947505 -0.013109435 0.04141297 0.014008752 0.123091534 0.047069255
-0.024293648 0.014021273 0.017311277 -0.018342018 0.0029461393 0.016011387 -0.018377962 0.010125516
0.011586557 -0.04084472 0.0435826 -0.036395952 -0.11306135 -0.035322946 -0.0014321099 -0.02134982
0.025219664 0.019921 0.01800787 0.11957421 0.04341225 0.07713036 0.04239476 0.062308516
0.008644014 0.009980888 -0.012541424 0.009536404 0.024236154 0.0014964208 0.014707378 0.051031414
0.002732417 0.059732746 0.038790602 -0.07052875 0.01652827 -0.02407118 -0.0037139438 -0.01413199
-0.010590288 -0.037881512 0.06738769 -0.003183315 0.14362544 0.08627216 0.03925046 0.014661008
0.009050713 0.05844354 0.027386656 -0.0072025554 -0.035348352 -0.022939969 -0.0010764236 0.043161243
0.028755255 -0.009900162 -0.0037505093 -0.015017872 -0.0109045105 -0.059002675 -0.04447953 -0.039511092
-0.063805446 -0.029131154 -0.03475877 -0.09564309 0.016985483 -0.040225737 -0.034492474 0.033788543
0.063392654 0.016859932 -0.0053099743 -0.040786803 -0.08009865 -0.03897183 -0.033027686 -0.05948056
-0.0066273026 0.016912198 -0.020800516 -0.007277308 0.021787662 0.015111631 0.0359912 0.07047805
0.036091473 0.033697456 0.06881762 0.06236294 0.044931673 0.030663578 -0.04406751 -0.01172395
-0.044096574 0.021923175 0.03823164 0.007147396 0.0073588444 0.024825599 -0.04832883 -0.04364531
00000000: f25b 3c3c a15d ccbc 5b44 4b3d 2cf4 18bd
00000010: 25b8 a5bc ac8f f1bc 10e6 29bd 016b 98bd
00000020: 0197 43bd b8d7 6f3d 1a2e 4b3d 1a6e 053d
00000030: fc32 cdbb 443c 89bc 71a0 eebc 9793 d63b
00000040: d542 8fbd 4d5a 1dbc a0c4 9cbc 1748 a43c
00000050: 9e2c ce3a 9f60 7a3d 357a 78bc 9af8 903c
00000060: 74d9 d53d 8bae 853d 025f 023d cc3c 24bd
00000070: a850 78bd 90d0 48bd 4efa afbd 53e7 a0bc
00000080: a86a 8abc e6c4 8fbd d5f0 f6bc e406 3dbd
00000090: 13f9 bfbd 1ee9 dfbc ded8 b43c 51a7 073d
000000a0: 7c9a a53c 0360 013d 27dd 643d b9fc 963c
000000b0: 970c ac3c d46e d83d e16e 313d 2236 5c3d
000000c0: fc64 5c3d b654 063d 742e 64bd 7407 403d
000000d0: 6cff 83bc ba3c abbd 37e4 7ebd f4b6 653c
000000e0: 00cb 8fbc 21ec 763b 9d1a 153d 238d 033d
000000f0: eb95 a2bd db13 7abd c05b b63b d2d9 66bc
00000100: d60e 32bd 7e8a a8bc 10b9 0d3d ea68 1a3d
00000110: 1d68 163d d23a 073d f777 6ebc 9a4b f7bc
00000120: cc4c 553d f5c7 b1bc a574 71bc b8b3 983d
00000130: 13ca 3e3d 7cf9 63bb b5a4 1c3b 7885 093d
00000140: 2ca3 b73c 0154 85bd 1f12 29bd 8bdb 113d
00000150: dbe2 1abd f1d2 c13b ba57 8f3d 6ea0 593c
00000160: 6101 623c 7d04 a23c 75c1 a2bd d848 28bd
00000170: d627 003d 41e0 babc 4a8f 453d 843b ad3c
00000180: b494 013d 0bec 7c3c 96af 073d f047 f239
00000190: 7217 0fbd ee53 bebc 688c 0dbc ab62 0fbd
000001a0: 1ba5 8e3c 7be0 b2bc bde6 1fbd 481b 863d
000001b0: 935e b7bd 0c05 78bc b205 8dbc 9cc4 dbbc
000001c0: a34d 3e3d b22b 4cb9 b7b8 9c3c 2da2 c03d
000001d0: f6db 9aba 2717 843c 7fbf 64bc 4a86 08bc
000001e0: 1ed1 98bb bd53 b63c ad14 6bbd bc67 283d
000001f0: 60df 013d a62f c3bc 69c5 703d 35d5 aa3c
00000200: 8c5d 50bd 3eb4 0cbd 34b2 29bd d675 1f3c
00000210: 8258 1bbd 565b a3bc 15b3 443b 77b3 49bd
00000220: f694 723d 9880 9b3c 2342 0a3d 9992 da39
00000230: df7a 3f3c a446 9cbc 94bf ad3b e1c4 be3c
00000240: c458 de3d 6990 20bb 8d0c c23d f5c8 56bc
00000250: a5a0 293d f784 653c 6a17 fc3d b1cb 403d
00000260: 7903 c7bc 7bb9 653c 61d0 8d3c 0042 96bc
00000270: 0414 413b 502a 833c 618d 96bc 7ee5 253c
00000280: 8bd5 3d3c cb4c 27bd ab83 323d ec13 15bd
00000290: b68c e7bd cbae 10bd a2b5 bbba d1e5 aebc
000002a0: 7899 ce3c 5d31 a33c 3e85 933c 53e3 f43d
000002b0: 0bd1 313d 86f6 9d3d 21a6 2d3d 3737 7f3d
000002c0: 9f9f 0d3c e186 233c 8b7a 4dbc 943e 1c3c
000002d0: e68a c63c 8d23 c43a 37f7 703c 5106 513d
000002e0: 5a12 333b 53aa 743d e5e2 1e3d 6171 90bd
000002f0: 4b66 873c ec30 c5bc a365 73bb dd89 67bc
00000300: e382 2dbc a529 1bbd 8f02 8a3d 2a9f 50bb
00000310: 8c12 133e 75af b03d 17c5 203d b934 703c
00000320: 7149 143c 7e62 6f3d fb59 e03c 6a03 ecbb
00000330: 6fc9 10bd 9aec bbbc c816 8dba d8c9 303d
00000340: 2490 eb3c 4a34 22bc 1bcb 75bb 850d 76bc
00000350: d5a8 32bc caac 71bd 2b30 36bd 62d6 21bd
00000360: 6eac 82bd 75a4 eebc 365f 0ebd 86e0 c3bd
00000370: 2425 8b3c bec3 24bd fb47 0dbd db65 0a3d
00000380: 02d4 813d d71d 8a3c 4bff adbb 1010 27bd
00000390: c30a a4bd eda0 1fbd 0a48 07bd e3a1 73bd
000003a0: d829 d9bb 738b 8a3c d865 aabc 7c76 eebb
000003b0: 0a7c b23c c696 773c 826b 133d cc56 903d
000003c0: a7d4 133d 5806 0a3d 41f0 8c3d 4870 7f3d
000003d0: 460a 383d 2f32 fb3c 2280 34bd cf15 40bc
000003e0: 9c9e 34bd 3b98 b33c c898 1c3d b434 ea3b
000003f0: 7622 f13b 0e5f cb3c 74f4 45bd 6dc5 32bd

conv4.bias f4 [64]
-0.00049905863 0.014474204 -0.019721523 -0.05307785 -0.02356701 0.01672232 -0.05514698 0.009889039
-0.015599468 -0.014272094 -0.05456331 -0.045778345 -0.01752373 -0.03153718 -0.014478169 -0.06423194
-0.02031762 0.0031131238 -0.022798423 -0.059837382 0.009197159 0.014600599 -0.018819062 0.015093059
-0.0446384 -0.037175033 -0.012863031 -0.06809794 -0.02681155 0.020321324 -0.050322145 0.0033008892
-0.026465382 0.0312585 -0.013707906 -0.046386547 -0.0138949575 -0.008470537 -0.022538306 -0.039782155
-0.0082975775 0.010639531 -0.011650674 0.016518788 -0.01676693 -0.015259456 0.0043037725 -0.05484908
0.020333745 0.021950345 -0.0073274635 -0.081055865 -0.010945081 -0.062648386 -0.045972545 -0.018174201
-0.06935507 -0.03059352 -0.04493654 -0.06791332 0.018811926 0.014862806 -0.013307583 -0.04063478
00000000: 42d3 02ba 3625 6d3c 088f a1bc 2968 59bd
00000010: 9a0f c1bc 3ffd 883c cde1 61bd a305 223c
00000020: e994 7fbc 80d5 69bc c77d 5fbd 1382 3bbd
00000030: ed8d 8fbc 212d 01bd d835 6dbc 098c 83bd
00000040: 2371 a6bc 8d05 4c3b c2c3 babc 0b18 75bd
00000050: aeaf 163c 5a37 6f3c 6f2a 9abc e148 773c
00000060: c1d6 36bd d944 18bd 76bf 52bc ef76 8bbd
00000070: e5a3 dbbc e878 a63c 981e 4ebd bb53 583b
00000080: eecd d8bc ea08 003d 2097 60bc d2ff 3dbd
00000090: ada7 63bc 02c8 0abc 41a2 b8bc 9df2 22bd
000000a0: 90f2 07bc 6d51 2e3c 78e2 3ebc 6952 873c
000000b0: cd5a 89bc cc02 7abc a906 8d3b 6ea9 60bd
000000c0: f492 a63c 36d1 b33c 381b f0bb 9e00 a6bd
000000d0: ff52 33bc cc4d 80bd b54d 3cbd 10e2 94bc
000000e0: 080a 8ebd 439f fabc 610f 38bd 2416 8bbd
000000f0: 781b 9a3c 2083 733c 0c08 5abc a870 26bd

fc1.weight f4 [10, 1024]
0.021175914 0.010053642 0.0032421555 0.011924619 -0.03209079 -0.03350275 0.012977134 -0.05066355
-0.004767788 -0.073316365 0.02241223 0.051531512 -0.047404215 0.03754979 0.02025751 0.03652041
0.017589632 -0.0004752703 -0.035085946 0.007878722 0.032536115 -0.022726879 -0.049378794 -0.027013268
0.018473687 -0.042742234 0.03922155 0.02982643 -0.019105129 0.013325929 0.014221644 0.033704307
0.013717316 -0.004764727 -0.024553195 -0.009385446 0.040505942 -0.007312351 -0.04191066 -0.005563761
0.015796337 0.017173858 -0.05095414 0.04082348 -0.022571675 -0.073904335 0.003432653 0.019071104
0.010037156 -0.030240953 0.005174024 -0.029308882 -0.0141493045 -0.024328548 -0.045711543 -0.013483426
0.0033024612 0.008227571 0.002727399 0.041057494 0.036151472 0.07915635 0.04129303 -0.00039481802
-0.031778898 -0.025330687 -0.0668177 0.010347588 0.009086352 -0.037901845 -0.023586344 0.13176286
0.03627817 -0.095228806 -0.0076393457 -0.052890714 0.039384723 -0.25006798 -0.15171406 -0.09076952
-0.019533636 0.020201271 -0.010439158 0.0010804648 -0.06943241 -0.015772494 -0.0005161327 -0.034288943
-0.043618277 -2.3572225e-05 0.015962388 -0.041528538 -0.02508964 0.035792448 0.021716302 -0.03228138
0.041011594 0.009671965 0.04998388 -0.03288602 0.009459137 0.01404554 0.022303017 0.11075774
0.006476072 -0.008936826 -0.023762701 0.075093135 0.015825909 -0.069265425 -0.049739204 -0.067245886
-0.005556225 -0.034984656 0.01662965 0.040905595 0.020113897 -0.026775252 -0.026587958 -0.042125866
0.0117500285 -0.014753748 -0.044629805 -0.035000417 0.034967355 -0.00031775484 0.04136361 -0.009835403
-0.0029448802 -0.083721116 0.02341504 -0.02823951 0.032787874 0.042657744 -0.0001278362 0.0013013211
0.02216158 0.015621258 -0.055260636 0.03283933 -0.008109198 -0.037815303 -0.025448393 0.032089315
-0.09500655 0.03503141 0.06378508 -0.0672356 0.0031720276 0.028319811 0.017092055 -0.10594375
-0.043946795 0.0040946207 -0.0099079395 0.040238094 -0.074405886 -0.010437315 0.010741284 0.03235955
0.010568102 -0.01999823 -0.036012374 -0.02703733 0.08771795 -0.05451048 -0.03129172 0.02227013
0.00021222151 -0.11882863 -0.06731907 -0.06924259 0.044290688 -0.024054509 -0.010094131 -0.016039416
-0.060969297 0.02888517 0.055216067 -0.0207839 -0.009045451 0.010498051 -0.009975774 -0.009541353
-0.033785675 -0.012026547 -0.008831222 0.025898 0.034138326 0.051301874 0.024654562 0.016329836
-0.06729741 -0.00040471356 0.028497405 0.07903924 -0.020779148 0.055130396 -0.028085211 0.03061953
0.019384054 0.031264614 -0.08537135 -0.042331345 0.03051572 0.002572087 0.011820633 0.0034613397
0.006716338 0.01627647 0.015530477 0.010321414 0.007595106 0.019781964 0.024562921 0.0549686
0.02743815 0.030189902 0.013470343 -0.011408017 0.024847658 -0.004069225 0.019131158 0.0068411035
-0.011860677 0.02104424 0.0022421335 0.08321604 0.012403822 0.025269816 -0.08140584 -0.013411707
-0.023151517 -0.049376532 0.008149925 -0.062409792 -0.07686897 -0.020443553 -0.012843531 -0.03444601
-0.024109412 -0.01888116 -0.095722504 -0.10811838 0.0021993013 -0.00025030272 0.04579976 0.06527049
0.117999755 0.0018778486 0.049736522 0.05632284 0.05669133 -0.13476811 -0.030727146 -0.016771074
00000000: 1c79 ad3c 08b8 243c 587a 543b 7a5f 433c
00000010: a271 03bd 2e3a 09bd 0c9e 543c 9584 4fbd
00000020: 1b3b 9cbb e426 96bd da99 b73c b512 533d
00000030: ec2a 42bd cfcd 193d 14f3 a53c 6d96 153d
00000040: 2218 903c b32d f9b9 48b6 0fbd c115 013c
00000050: 9744 053d b82d babc 6b41 4abd ee4a ddbc
00000060: 2156 973c 7b12 2fbd c7a6 203d 8f56 f43c
00000070: 5c82 9cbc ff54 5a3c e601 693c 870d 0a3d
00000080: 98be 603c 6d21 9cbb c823 c9bc 6ac5 19bc
00000090: 8fe9 253d 729c efbb 83aa 2bbd 3650 b6bb
000000a0: 5267 813c 31b0 8c3c 4ab5 50bd 8536 273d
000000b0: 3ce8 b8bc 285b 97bd 5cf6 603b 013b 9c3c
000000c0: e272 243c e0bb f7bc dc8a a93b 2e19 f0bc
000000d0: 7cd2 67bc aa4c c7bc 073c 3bbd 96e9 5cbc
000000e0: 1b6e 583b efcc 063c 2abe 323b e72b 283d
000000f0: 9113 143d b91c a23d e122 293d 94ff ceb9
00000100: 972a 02bd 4d82 cfbc b8d7 88bd ee88 293c
00000110: ecde 143c f73e 1bbd 2638 c1bc d8ec 063e
00000120: 6b98 143d 5207 c3bd 7a53 fabb efa3 58bd
00000130: e051 213d e908 80be ee5a 1bbe 5fe5 b9bd
00000140: 0105 a0bc 237d a53c 0109 2bbc 629e 8d3a
00000150: 9432 8ebd 5135 81bc 144d 07ba 9072 0cbd
00000160: 14a9 32bd f8bc c5b7 8ec3 823c d419 2abd
00000170: ca88 cdbc 1a9b 123d 63e6 b13c 7b39 04bd
00000180: c6fb 273d 2977 1e3c e6bb 4c3d 7eb3 06bd
00000190: 7ffa 1a3c 441f 663c d1b4 b63c f4d4 e23d
000001a0: 3b35 d43b c46b 12bc ffa9 c2bc 6eca 993d
000001b0: 56a5 813c 08db 8dbd 56bb 4bbd 36b8 89bd
000001c0: fe10 b6bb 124c 0fbd e73a 883c a08c 273d
000001d0: e6c5 a43c c657 dbbc fdce d9bc 2c8c 2cbd
000001e0: 3183 403c b4b9 71bc becd 36bd 995c 0fbd
000001f0: ee39 0f3d 5598 a6b9 e46c 293d ac24 21bc
00000200: e4fe 40bb fa75 abbd e6d0 bf3c 8b56 e7bc
00000210: 944c 063d e3b9 2e3d c50b 06b9 1791 aa3a
00000220: 348c b53c 4ef0 7f3c fa58 62bd 8982 063d
00000230: 71dc 04bc 38e4 1abd 2679 d0bc 1670 033d
00000240: cb92 c2bd 197d 0f3d c1a1 823d d1b2 89bd
00000250: cbe1 4f3b f3fe e73c a304 8c3c 09f9 d8bd
00000260: 8e01 34bd 2b2c 863b e954 22bc b3d0 243d
00000270: 1d62 98bd 4601 2bbc 36fc 2f3c 738b 043d
00000280: d525 2d3c 54d3 a3bc b681 13bd 647d ddbc
00000290: 78a5 b33d 6246 5fbd bf2b 00bd d96f b63c
000002a0: c787 5e39 6d5c f3bd 95de 89bd 0fcf 8dbd
000002b0: 276a 353d f60d c5bc db61 25bc 1865 83bc
000002c0: f1ba 79bd 98a0 ec3c 3e2a 623d ff42 aabc
000002d0: 5f33 14bc 0400 2c3c 6e71 23bc 5653 1cbc
000002e0: d962 0abd ff0a 45bc d4b0 10bc 0b28 d43c
000002f0: a1d4 0b3d ea21 523d 5df8 c93c 26c6 853c
00000300: 39d3 89bd bc2f d4b9 6473 e93c 53df a13d
00000310: 0839 aabc 69d0 613d f512 e6bc cfd5 fa3c
00000320: 4fcb 9e3c 530f 003d 2dd7 aebd a263 2dbd
00000330: 1afc f93c 7690 283b 54ab 413c a5d7 623b
00000340: ba14 dc3b 3b56 853c 8b73 7e3c 261b 293c
00000350: 5ee0 f83b c90d a23c 2e38 c93c c126 613d
00000360: f9c5 e03c d050 f73c b7b2 5c3c b1e8 3abc
00000370: 518d cb3c 2257 85bb f2b8 9c3c 562b e03b
00000380: 4953 42bc f864 ac3c c2f0 123b 2c6d aa3d
00000390: 6639 4b3c a502 cf3c 1bb8 a6bd c7bc 5bbc
000003a0: 40a8 bdbc 0c3f 4abd 4387 053c 69a1 7fbd
000003b0: 7b6d 9dbd 3d79 a7bc ac6d 52bc 4217 0dbd
000003c0: 1a81 c5bc aaac 9abc 290a c4bd 2b6d ddbd
000003d0: 2722 103b 103b 83b9 8798 3b3d 89ac 853d
000003e0: dba9 f13d 2522 f63a 86b8 4b3d c7b2 663d
000003f0: 2b35 683d a700 0abe 7fb7 fbbc 7e63 89bc

fc1.bias f4 [10]
-0.020391991 0.03646067 -0.014541957 -0.021773413 0.006669976 -0.04341089 -0.0038220228 0.00982616
0.011580218 0.0044532823
00000000: 1b0d a7bc c957 153d 6341 6ebc 285e b2bc
00000010: d08f da3b 9ecf 31bd e77a 7abb e7fd 203c
00000020: f4ba 3d3c d7ec 913b
