model/CNN_best.pth (torch, 251287 bytes, 6 tensors)

conv1.weight f4 [32, 1, 5, 5]
00000000: a6dc ce3d 1a7c 48be 8264 2fbe 1bec 83be
00000010: 75ca 8dbe 0a76 92be b5cf 90bc 388e 37be
00000020: ce6b a1be f89e 1e3e 6eb3 44be cbff 2ebe
00000030: e558 18be 744c 8a3e 751f 513d 33a7 5f3e
00000040: 9d42 523d bbec d9bb cdf4 ac3e 8d9b 553e
00000050: 4fcd 8a3d abc6 a73e 9c02 7e3e 38b7 473e
00000060: f793 19be e49e 24bd 7f54 35bd 59b9 643e
00000070: 9fd7 1b3e 1093 cfbd 8189 713d e4fe 4d3e
00000080: 8271 733e 3d01 13bd e381 b43d 93bd 093e
00000090: fead 963d e500 df3d 1543 833c e964 19be
000000a0: d6e5 653e dae3 5a3e 6511 0fbe 1924 58be
000000b0: d47f a13d 07d0 96bd 307f 963c 0c60 5b3e
000000c0: 09d0 153d 0e66 a4bd 7aba 10bd 3d9a 2f3e
000000d0: 0fa0 89bd 1de0 273e a94c 47be ce52 c4bd
000000e0: 2a80 613e 5af2 113d d842 393e 2995 2d3e
000000f0: 3ca2 8cbd e582 623e 3eb6 15be 6d2a b73c
00000100: d7a4 1cbe bef7 743b 3b33 1bbe e55e 67be
00000110: cbe5 2f3e 0173 3cbd 9dd8 013e 78a1 efbd
00000120: d14c 383e b727 8f3e 9d99 2c3e 0a42 843e
00000130: 2457 733e 583c 173e 7850 27bd 8590 a2be
00000140: b191 cf3e bca2 e33d 18a5 673d f311 94be
00000150: 8691 eebe 7fc4 d33e 8752 8e3e 5ec5 6fbe
00000160: 1585 e4be 3774 bcbd c1c5 80bd 4978 e4be
00000170: c679 17bf 2952 d7be 8c0d 76bd f01c b5be
00000180: ece5 c3be e02e b0be 75b0 3fbd 9ae0 193d
00000190: aa06 2e3e e737 173e a63b fcbc c7c4 493e
000001a0: eabb 4abc 4d2b 353d c994 123c 84bd 453e
000001b0: 6214 1d3e e627 2b3e bac9 b63c e39e dc3d
000001c0: 74d8 c53d 4edf 3a3e 6a96 60bd 7d20 dbbb
000001d0: 58eb 3a3b f576 95bd e989 ccbd 54ca 053e
000001e0: 54c2 8ebe 3e84 a0be cf98 9d3d 235a c33c
000001f0: d909 223e 6a69 f93d 65d4 ffbd 189b 833e
00000200: 2254 463e fd79 873e 558c 353e 106f 053e
00000210: ba6e f6ba c1a0 4d3e 6237 36be 0929 003d
00000220: dc30 743e 0273 823e 491f f6bd 10d2 a8be
00000230: 91dd 1dbe bcca 233e 641c 1ebe bc03 32be
00000240: 5c6b 1dbe e7fa 2b3e c10a 06be 9b9b 2ebd
00000250: 22fc 9f3d 7eb6 553e 7df2 183e e135 21be
00000260: 5e81 5b3e e8e2 cfbb 3867 9dbe 2c96 333e
00000270: 047b 2b3e b25e faba abf2 2abe cfe2 b7be
00000280: 895a a73d 97f3 b23c 43ed 833e e48f 4dbe
00000290: ed70 45be 9e09 c03d 9c76 b43d 5e25 b63d
000002a0: 85aa 453e f01e a2be f6a1 1f3e 9fbd 5fbd
000002b0: 47f2 06bd 3465 953e c8e6 95bd 321a 403d
000002c0: e457 73be 933f b7bd e5ad 133e 874c 283e
000002d0: 66d3 0abd d104 a7bd 1e7f 823e b278 2a3e
000002e0: 1a51 0a3e 7a3f bb3d 3735 563e 7628 803e
000002f0: 682a f33d 5e73 293e 05de 053e 6aa2 c3bd
00000300: 4e17 423e c826 2dbe b496 64be a4cb f93d
00000310: de28 3b3d 1358 973c 7599 61bd e1e9 21be
00000320: cd89 153e a7af 933d 8f4f 263e 3b6e 603e
00000330: 4099 953e 8a62 9bbd b35b 06bd d367 fcbd
00000340: fb29 39be cdbe ae3c 548e afbe 5a24 c6be
00000350: 0b6d 41be af37 06be 4830 0c3e d2ab 5f3e
00000360: 664b c0bd 08b6 023e e2f1 00be 1893 1dbe
00000370: 3335 353e 723d e23d c6df 4d3e 288e 4b3e
00000380: 093b bbbd 1fc3 19be 718c d0ba 69d7 573e
00000390: ad55 a8bc 7e32 8cbe d835 57bd ec9c 923e
000003a0: bf7a 4ebd 474e 96bd 1bfd 93be 1980 3c3e
000003b0: 80e6 db3d 41ef 50be 2359 2e3d 7e1d 5b3d
000003c0: 9d51 9fbd db93 ecbd f096 fb3d a4ae 9c3e
000003d0: 7177 9e3e c2fd 083e b023 133e b26b 37be
000003e0: b681 033d 2f22 b7bd 46a4 20bd bc73 53be
000003f0: dcc9 313e e2c2 f6bc 7917 eb3d 205f 253e
0.10100679 -0.19578591 -0.17128184 -0.25766072 -0.27693525 -0.28605682 -0.017677167 -0.17925346
-0.3152756 0.1549033 -0.19209072 -0.17089765 -0.1487766 0.27011454 0.05105539 0.21841125
0.05133306 -0.006650535 0.33780518 0.20860119 0.06777441 0.3276876 0.24805683 0.19503486
-0.1499785 -0.040190592 -0.044270035 0.2233633 0.15218972 -0.10135472 0.058969025 0.20116764
0.23773769 -0.035889853 0.088138364 0.13451223 0.07357405 0.108888425 0.016023198 -0.149799
0.22450957 0.21375981 -0.13971479 -0.2110752 0.078857094 -0.07363897 0.018371195 0.21423358
0.03657535 -0.08027278 -0.035334088 0.17148681 -0.06719982 0.16394086 -0.19462837 -0.09586106
0.22021547 0.035631515 0.18091905 0.16951431 -0.06866881 0.22120245 -0.14620301 0.022359097
-0.15297256 0.003737911 -0.15156262 -0.22594793 0.17177503 -0.046008114 0.12680288 -0.117007196
0.17998053 0.27959988 0.16855474 0.25831634 0.2376371 0.14769113 -0.040848225 -0.31750885
0.4054084 0.111150235 0.05655393 -0.28919944 -0.465954 0.41360852 0.27797338 -0.23415133
-0.44632784 -0.09201854 -0.062877186 -0.4462302 -0.59170187 -0.4205487 -0.060071513 -0.3537364
-0.38261354 -0.34410763 -0.046799142 0.037567712 0.1699473 0.14767419 -0.030790161 0.19703971
-0.012373904 0.044230748 0.008946606 0.19310576 0.15339807 0.16714439 0.022312988 0.10772493
0.09660426 0.18249246 -0.054830946 -0.0066872225 0.0028521623 -0.0729808 -0.09987242 0.13065463
-0.27882636 -0.31350893 0.076951616 0.023846691 0.15824069 0.12178309 -0.12491683 0.25704265
0.19368032 0.26460257 0.17729314 0.13030648 -0.001880131 0.20080854 -0.17794564 0.031289134
0.23846763 0.2547837 -0.12017686 -0.32972765 -0.15416552 0.15995306 -0.15440518 -0.17384237
-0.15372986 0.1679493 -0.1309004 -0.042628866 0.078117624 0.20870396 0.14936252 -0.1574321
0.21436068 -0.006344188 -0.30742812 0.17537755 0.16746145 -0.0019101708 -0.16694133 -0.3591523
0.08171565 0.021844668 0.25766954 -0.20074421 -0.19281359 0.09376834 0.088116854 0.08893846
0.1930333 -0.31664228 0.15589127 -0.054624196 -0.032945897 0.29178774 -0.07319409 0.04689998
-0.23763996 -0.08947673 0.14421804 0.16435443 -0.03389301 -0.081552155 0.25487608 0.16647604
0.135075 0.091429666 0.20918737 0.2503087 0.11873323 0.16547915 0.13072975 -0.095524624
0.18954203 -0.16909325 -0.22323114 0.121970445 0.04569327 0.018474614 -0.05507799 -0.15811874
0.14603348 0.072112374 0.16241287 0.2191705 0.29218483 -0.07587154 -0.032802295 -0.123244904
-0.1808242 0.021331215 -0.34288275 -0.3869961 -0.18889253 -0.13107179 0.13690293 0.21842888
-0.09389381 0.12764752 -0.12592271 -0.15388143 0.17696075 0.11046876 0.20104894 0.19878447
-0.091421194 -0.15015839 -0.0015910995 0.21078266 -0.020548666 -0.27382272 -0.052541584 0.28635347
-0.05041003 -0.07339149 -0.28904042 0.1840824 0.10737324 -0.20403768 0.042565476 0.053494923
-0.077792384 -0.11551639 0.122846484 0.3060199 0.30950502 0.13378051 0.14369082 -0.17912176
0.032106124 -0.08942067 -0.039219163 -0.20649618 0.1736216 -0.030122224 0.114790864 0.16149569

conv1.bias f4 [32]
00000000: d543 113e 47fa 07be eceb 0dbd ae00 193e
00000010: f71c edbb 8363 8ebd d82e 1a3e c541 8c3c
00000020: befc 55bd 6db3 5abc 4ec5 473d 8057 36bd
00000030: a2be cfbc 568a a33c f10e 36ba 9033 f93a
00000040: ffc2 b33d e67b 5a3d b243 b4bb 8588 b5b9
00000050: 6ef2 a03d cfdd 273e b97c 043a c2c8 d23d
00000060: 7d05 dcb9 b178 203d b76e ff3d 09be 5d3b
00000070: 8dd4 91bd cb3a 783d 1abe ec3b 7668 16be
0.14186032 -0.13279067 -0.03464882 0.14941666 -0.007236119 -0.06952574 0.15056932 0.017121205
-0.052242987 -0.0133484425 0.04877215 -0.04451704 -0.025359455 0.019963425 -0.00069449755 0.0019012559
0.08777427 0.053340815 -0.005501234 -0.00034624725 0.0785874 0.16393207 0.00050539855 0.10292198
-0.0004196576 0.0391776 0.12472289 0.0033835194 -0.07120619 0.060602944 0.0072248103 -0.14688286

conv2.weight f4 [64, 32, 5, 5]
00000000: c75b a939 e45e debb cac1 723d 88b1 283d
00000010: e10c 74bd 0dca 05bd 3d39 f73c 8317 e13d
00000020: 2ee1 93bc 1d34 c23a ebd9 d93b 807f 3a3b
00000030: 5d8f b33c 6c9a a2bb 1a99 d7bb bdb0 90bd
00000040: f494 d3bd b600 afbd eb8d 8a3d b28d 9b3c
00000050: 1e5f 873c 71e2 86bd e5ee 4fbd 8329 173d
00000060: 794d ae3d c114 a4bc 39f9 e1bb b074 5abd
00000070: 7135 e33c 01b4 093c 4b78 b4bc d7c6 3ebd
00000080: a14b 47bd e43c c2bc 8d17 08bd 2bf1 fabc
00000090: 9fa2 2bbc 4c4e 5e3d fddf 1cbd 56bb 92bd
000000a0: 7bf5 433c 6f89 683d 5a89 533d 8bf4 6abc
000000b0: 6331 6cbc 97ca 06bd 8b95 cf3c bf68 80bb
000000c0: a39f e13c 7a35 83bc 6cf7 4ebd 593b 37bd
000000d0: 24ed e5bc 5bb4 f2bc 9c96 82bc 74df 6bbc
000000e0: 7e4d 3cbd 551d 70bd 25d1 26bc 4845 00bd
000000f0: 0063 163d 0699 833c 9013 50bd a100 a9bc
00000100: 231a b0bd 2767 28bc a01e dc3c 0d68 f73c
00000110: 598e f73b 69b2 96bc 222f 07bb 7dcd 253d
00000120: d969 163d 9d01 fd3c 5f7b 2bbd 8788 603c
00000130: 5b9f 91bd bfab 31bb ebc6 c83a baaa 7c3d
00000140: 9e2b 6dbc 1756 14be 99cb 1cbe 4f7d 88bb
00000150: d0f4 a63d b5fb 82bd 64e1 21be e3af 84be
00000160: 48c3 dfbd d744 163c 96d7 733a 7b16 3bbe
00000170: 40f1 69be 08d7 afbe 058e 20bd 9d47 e4bc
00000180: 7ff3 97bc 8ec3 af3b 445f 873d 087f bf3d
00000190: dc91 74bd 299a dabd ca7f a5bd 939f 14bd
000001a0: 208a e73c 5fbf 053d 54c0 50bd 54f9 1ebd
000001b0: 69ba f3bc 50b8 e5bc b8c0 3b3d 4e35 223c
000001c0: c926 2fbd 6fad c6bd 8922 6cbc 7d9b 513d
000001d0: ab22 843d e01a 563d 1c69 8fbd 5e63 92bd
000001e0: b5a7 3cbd ad60 393d 30c2 ad3c 8c3c 863d
000001f0: 933b c73b 443c bdb9 540d 9fbc ad4a 03bd
00000200: 99d4 aa3c 115f b03d bc1e dcb9 bccb 45bd
00000210: 284f 72bc 6646 97bc 88d3 1ebd 2140 4bbd
00000220: 2a5a 533d 10de 573b 5c8b 55bd b025 41bd
00000230: cf63 42bd 0b41 9f39 58a1 413c 3e40 503d
00000240: 18e7 15bd b60a 46bd c630 ffbc 1502 7ebc
00000250: 9909 4e3d 991a 713c 3afe b1bb 90e6 d4bc
00000260: 6488 b9bc 7df2 0b3c 01de 1b3d 5224 883d
00000270: db9f 3f3d 868f fc3c 6ef8 643d 2505 ba3c
00000280: 0df4 863d 1ab5 013e 3cc5 023e 432a 373c
00000290: d869 73bd 8758 96bb 9d7f 0c3e b314 1b3e
000002a0: 59d1 da3d 3df1 e7bb cc25 07bd 2ce9 aa3d
000002b0: e3a7 ff3c 81c1 d23d 6597 933d 6f7e bbbb
000002c0: 369f 60bd e402 febc 76ba 823d 0fc4 e7bb
000002d0: 2e24 6ebd 5ed7 953c 1eb9 9cbb 0e09 e4bc
000002e0: 8015 70bd 3168 81bc b971 1abd b206 06bb
000002f0: a016 17bd cd74 0bbd 6bc5 63bc c9f0 49bd
00000300: a03e 9c3b 0275 7d3c bb53 423d c0ce be3c
00000310: 71d8 df3c 4860 303d 7262 743d 7306 353c
00000320: b2d9 af3c 6c7c b6bd a2c8 f4bc 3d41 9bbd
00000330: 7d2b 18be 3b00 7dbd 2387 893d 9064 e13d
00000340: eaba fa3c 3361 463d 55ac b3bd df79 d5bc
00000350: f051 eb3c f5dc 4d3c b5c2 22bd ccd2 c7bc
00000360: 666d dcbd 128b 36be e4a6 fcba a29c 013e
00000370: 3c9d 713c a898 633d 3a1e 12bd d3c0 17be
00000380: 5aff 0bbd 6657 06be ce32 593b 922d 973c
00000390: 1e36 91bd 2e02 5c39 980e bc3c ac55 6b3b
000003a0: 35cc e1bc 0b5d 993c dc64 1b3d ace2 113d
000003b0: bc16 8f3d 22e2 d53b f14a b53c 0e30 96bd
000003c0: 2996 06be 04f1 a53c b161 513d 6eb9 5f3d
000003d0: 5d09 dabc d1de b6bc 7773 c73d 3168 d03d
000003e0: 3cee cb3d cbc5 853d 5b8e 8abd d2fd 25bd
000003f0: 8b3e 103d 94c6 123d 2411 8c3d 8d11 b6bc
0.0003230257 -0.006786214 0.059266843 0.041184932 -0.059582595 -0.032663394 0.03017866 0.10990813
-0.01805171 0.0014816556 0.0066482923 0.0028457344 0.021918947 -0.004962256 -0.0065795304 -0.0706496
-0.10331145 -0.085450575 0.0676535 0.018988464 0.016524848 -0.06586159 -0.050764937 0.036904823
0.085108705 -0.020029427 -0.0068961647 -0.053333938 0.027735444 0.008404733 -0.022030016 -0.046576347
-0.04865611 -0.023710676 -0.033225585 -0.030632576 -0.010475784 0.05427389 -0.03829955 -0.07164638
0.011960383 0.056771692 0.05164466 -0.01434053 -0.014416072 -0.03290805 0.025339862 -0.0039187367
0.027541941 -0.01601671 -0.05052893 -0.044734333 -0.028067179 -0.029627016 -0.015940957 -0.014396537
-0.04597234 -0.058621723 -0.0101817 -0.03131607 0.036715508 0.016064178 -0.050799906 -0.020630183
-0.08598735 -0.0102785 0.026870072 0.030200982 0.007554811 -0.01839562 -0.0020627459 0.040479172
0.036722038 0.030884558 -0.041865703 0.013704426 -0.07110473 -0.0027110425 0.0015318071 0.061686255
-0.014475731 -0.14485966 -0.15312041 -0.0041653286 0.08152163 -0.063956656 -0.15808636 -0.2591544
-0.10925919 0.009171686 0.0009301839 -0.18270294 -0.22845936 -0.34343743 -0.03919794 -0.02786618
-0.018548725 0.005363888 0.06609967 0.09350401 -0.059709415 -0.10673935 -0.080810145 -0.036284994
0.028264105 0.03265321 -0.05096467 -0.038811997 -0.029751973 -0.028041989 0.045838088 0.009900404
-0.042761598 -0.097010486 -0.014412531 0.051173676 0.06451925 0.052271724 -0.0700247 -0.07147859
-0.046058375 0.045258213 0.02121076 0.06554517 0.0060801 -0.0003609379 -0.019415535 -0.03205364
0.020853328 0.086118825 -0.0004198457 -0.04829 -0.01478938 -0.018466186 -0.03877595 -0.049621705
0.05159966 0.0032938756 -0.052134857 -0.047155082 -0.047458466 0.00030375304 0.0118182525 0.050842516
-0.03659734 -0.04835006 -0.031151187 -0.015503426 0.05030212 0.014715814 -0.0054319175 -0.025988847
-0.022648044 0.0085417 0.038053516 0.066475525 0.04678331 0.030830156 0.055900984 0.022707531
0.06589518 0.12666741 0.12770551 0.01117951 -0.059427112 -0.00458819 0.13720556 0.15144615
0.10684461 -0.0070783184 -0.03299503 0.08345255 0.031207984 0.10290814 0.072066106 -0.005721859
-0.054839335 -0.031007238 0.06383221 -0.0070729326 -0.058139972 0.018291172 -0.00478281 -0.027836349
-0.058614254 -0.015796753 -0.03770611 -0.0020450768 -0.03688681 -0.034046937 -0.013902049 -0.049301896
0.0047682077 0.015469791 0.047443133 0.023291945 0.027324887 0.04306057 0.059664197 0.011048901
0.02146611 -0.0891045 -0.029880825 -0.075808026 -0.1486034 -0.061767798 0.067152284 0.11005509
0.030606706 0.04843254 -0.08773104 -0.02605909 0.028725594 0.012564887 -0.03973647 -0.024392508
-0.107630536 -0.17826489 -0.0019275812 0.12657407 0.01474696 0.055565506 -0.035673358 -0.1481965
-0.03417907 -0.13119277 0.0033141854 0.018454347 -0.070904 0.00020981647 0.022956178 0.0035909219
-0.027563194 0.018721124 0.037937984 0.03561656 0.06986758 0.0065272013 0.022130461 -0.073333845
-0.13143219 0.020256527 0.051118556 0.0546202 -0.026615793 -0.022323044 0.0973882 0.10176123
0.09957549 0.06531867 -0.067654334 -0.040525265 0.035215896 0.03583391 0.06839207 -0.022225166

conv2.bias f4 [64]
00000000: 6125 80bb aef5 353c 91b6 953c d305 c7bc
00000010: 8989 93bb 6f99 5f3c 8679 bdba 33d1 493d
00000020: 1cab 46bd 6c77 913a adf4 fb3b 2a20 40bb
00000030: 56e1 45bc 3dbc 11bd 0ffb dfba e8d7 19bd
00000040: 95e3 2dbd 1720 933b 7acc 043c f632 58bc
00000050: d38e 4a3b 738d 123d 02da bc3c d51a 66bd
00000060: 470a 7f3d e500 f13c 39ab 2abd 734a 04bc
00000070: 5373 efbc de85 32bd 4dc9 e5bc cefb a6bc
00000080: 1deb d8bc 2216 7ebc 0e65 953a 03f7 413d
00000090: b04e 09bb b11c 333d 54ca 7abb 8810 a93c
000000a0: c0f5 833c 6ee8 593c 2ef0 75bb 6905 ae3c
000000b0: 10e9 933c 1152 40ba 5395 93bc 654f 633c
000000c0: 5de6 e83b d4b3 0a3d 73d6 8e3c 3801 b13b
000000d0: 77ec 2bbc 1792 2d3d c822 d33c ed40 50bc
000000e0: a851 123c 45c0 42bc 4432 adbc 3c3c 33bd
000000f0: a6ac 993b 0a9b 8ebc 49a6 013d 7df6 393d
-0.003910706 0.011105938 0.018275531 -0.02429477 -0.0045024795 0.013647421 -0.0014455772 0.049271774
-0.048503026 0.0011098213 0.0076890797 -0.0029316046 -0.01207765 -0.03557991 -0.0017088371 -0.03755942
-0.042453367 0.0044899094 0.008105392 -0.013195744 0.0030907884 0.035779428 0.023053173 -0.056177933
0.06226566 0.029419372 -0.041667197 -0.008074391 -0.029229796 -0.043584697 -0.02805009 -0.020383742
-0.026479298 -0.015508207 0.0011397914 0.04735471 -0.0020951442 0.043728534 -0.003826757 0.020637766
0.016108394 0.013300044 -0.0037527191 0.021242814 0.018055469 -0.00073364476 -0.01801554 0.01387391
0.0071075396 0.033862904 0.017436242 0.0054017566 -0.010493389 0.04237565 0.02577342 -0.012710792
0.008930601 -0.011886661 -0.021142133 -0.043758616 0.0046897708 -0.017407913 0.031652723 0.045401085

fc1.weight f4 [10, 1024]
00000000: 1462 37bc dc4f ba3b 4f19 823d 6255 8b3d
00000010: c0dc f2bc dd7c ccbc 1292 cf3c a2cf d23c
00000020: 0045 28bd 4ff4 903c 8a40 1bbc a790 fabc
00000030: 9f8d a13d 25d0 943d edd5 b7bb 32f0 b9bd
00000040: fa0e 02bd b2f7 a73c 44de 8dbc 4cb0 90bb
00000050: 15aa 943c 4a85 393c 2b23 d5bc b4cc 32ba
00000060: 945b 07bd f1da b13c 6588 abbc f79f a539
00000070: e81d 9fbc b46a 883a 84ac ad3b 25cb 1a3c
00000080: f1f1 613a 16e9 2d3b 5582 0c3d 417a 983c
00000090: 1ceb 573d 7b63 0a3d 5503 a53c 6b02 013d
000000a0: 672a 193d 7280 fabc 455d 2ebd 9af1 e93c
000000b0: 9213 d73b 7d4b 863c 01be 83bc 7517 4c3c
000000c0: 927f 3d3c 4453 9bbc be14 27bd 0eab 0d3c
000000d0: 04f3 d03c 606d a3bd 7926 a3bd 0598 893b
000000e0: 802e f1bc d4f4 01bc d66b b73c 68ef abbc
000000f0: f0b7 173d 9d9a b73c 200f 843d 3f00 58bc
00000100: 4490 87bd 4cb2 0ebd 5ae5 73bb 3534 733d
00000110: b050 65bd 49f4 343c 35ca 3ebd 0df9 6fbc
00000120: b76f db3b f9e3 3dbd 3d37 17be f535 f0bc
00000130: 0b7c 913d 2394 dabb 741b 023d 2fa4 48bd
00000140: 3bf0 e2bb 5093 983c 5814 6cbc 0a6e 21bd
00000150: ea19 a03c 7efe 3abd 417e 1a3d 087a 643d
00000160: d3a0 003d b7b2 f43c 73c1 093e 0be2 533d
00000170: 40ee ed3c c37a ab3d 8c9f 67bb bf3b 703b
00000180: c6da 6a3c abd6 873c 96c0 053b 61e2 633d
00000190: d56e 913d 69fa 17bd c9de e5bc 7f35 0fbd
000001a0: 3a1c e3bb 38b8 323d b503 0d3d fea9 88bd
000001b0: 8206 a9bc c309 5d3c 5f8c 7e3d 603e 7ebc
000001c0: 2c14 bcbc 3d01 8ebd 0744 45bd 8243 ebbc
000001d0: f6b9 59bd 7ec1 123d 9025 a1bc 7530 9cbd
000001e0: bf63 273d 8d8c 7d3b 86e1 32bd a803 03ba
000001f0: c68a e7bb e8de ad3d b44d d83d 9bc5 903c
00000200: c637 5e3d 38c9 1dbd 2606 3fbd 4c3b 4abd
00000210: b6e0 1dbc df34 d8bd 8f31 f9bd 2e2e 33bd
00000220: c817 89bd c0f6 09bd 6639 6ebd 9d3f 09bd
00000230: 79b2 193c eff8 973c 97fd b93c 6ddb 9ebb
00000240: 35ee f0bc 8b54 f7bc 4f9b 26bc f4e7 a8bc
00000250: 0349 cc3b 9d8c 0c3d 08ba af3c 51c0 29bd
00000260: 7f55 48bd 8d98 993c d34e 1d3c 71fc 3bbd
00000270: d4c3 54bd 2298 b1bc 4089 31bd 6f97 bb3c
00000280: fa34 513c c756 9bbc 3752 b9bc e6b8 513c
00000290: 2b6f 3f3d 0c89 74bb e656 68bc 1a0d 83bb
000002a0: 73ef 073d 56a5 ccbc 2087 a9bc d62a f5bc
000002b0: 97c3 4a3c a080 dfbc 0bcc 1a3d 19c5 e0bb
000002c0: c7b0 0bbd a348 1abd 52ef 53bd c229 24bc
000002d0: 6beb debd 0d12 2c3d fcc5 793c 2de4 8c3c
000002e0: 057f 1b3c 52c9 87bc 8b86 443c d894 893c
000002f0: 314e 8b3d 25c1 5d3d f7c2 2bbd 26dd 52bd
00000300: 5dc1 0bbc 42d1 93bd 089b 23bd 7163 2abc
00000310: ffb4 aa3c a8bd cf3a 7f2a 13ba 881d 333c
00000320: 197a 743d 3681 803d 576c 35bd cf47 c53c
00000330: c63c 053d 37a4 0cbd 5bf0 a2bd e711 77bd
00000340: 581c 793a 9f7d 28bc 0a9f d03c 4bd8 64bc
00000350: 8c2e ac3c 1f53 1a3c bf6e 9cbc f9fd a33c
00000360: 4cc9 bf3c a49c d6bb 3a12 7ebb 499b 75bc
00000370: c218 fa3c 2581 b43c c688 6d3c 1423 c53c
00000380: 5ce2 d2bc 8511 d63c 11f2 323d 1a94 af3a
00000390: c448 49bc 0f3d 4cbb ee71 77bc 9a2f b43c
000003a0: 5521 273d 786c 9ebb d15a 8bbd bde8 92bc
000003b0: dd5f e63c 2ab0 6a3c 4f05 d8bd 21ca 8abc
000003c0: b219 213d 3992 183d 1ddf 6b3b 65da 093c
000003d0: 8f72 833d 6597 243d 281b 7bbd 6f64 9fbd
000003e0: 53dc 393d 3a37 e6bc c16f 853a 74b5 05bc
000003f0: b079 103c 81d1 7c3c 9a19 083d 7caf f13b
-0.011192817 0.0056857895 0.063524835 0.06803395 -0.029646277 -0.024961883 0.025338206 0.025733773
-0.04108143 0.01769462 -0.0094758365 -0.030586554 0.0788834 0.07266263 -0.0056102187 -0.09079017
-0.031752564 0.020503853 -0.017317899 -0.0044155475 0.018147508 0.0113232825 -0.026017746 -0.0006820664
-0.03304632 0.021710845 -0.020939061 0.00031590436 -0.01942344 0.0010407777 0.0053001065 0.0094478475
0.0008619121 0.0026536635 0.03430398 0.018612983 0.052714452 0.03378628 0.02014319 0.031496447
0.037393954 -0.030578826 -0.042569418 0.028557587 0.0065636123 0.016393417 -0.016081812 0.0124567645
0.01156606 -0.018960603 -0.040791266 0.00864674 0.025506504 -0.07979846 -0.079663225 0.0041990303
-0.029441118 -0.007931907 0.022390287 -0.020988181 0.03704065 0.022412593 0.06448197 -0.013183652
-0.06619313 -0.034838006 -0.0037215562 0.05937596 -0.055985153 0.01104457 -0.04657956 -0.014646781
0.006696667 -0.04635999 -0.14767165 -0.029322604 0.071037374 -0.0066704913 0.031764463 -0.048984703
-0.0069256104 0.018624932 -0.014409147 -0.039411582 0.019543607 -0.04565286 0.03771806 0.05578044
0.031403374 0.029870374 0.13452701 0.051729243 0.02904427 0.08373024 -0.00353429 0.0036656705
0.014334386 0.016581854 0.002040898 0.055635814 0.07101218 -0.037104044 -0.028060334 -0.034963127
-0.006930855 0.043632716 0.034427363 -0.066730484 -0.020632986 0.013491097 0.062145587 -0.015517801
-0.022958837 -0.0693383 -0.04816058 -0.028718714 -0.05315586 0.03582906 -0.019671232 -0.0762643
0.04086661 0.003868851 -0.043672107 -0.0004997798 -0.0070661036 0.084897816 0.10561696 0.01767235
0.05425241 -0.038521975 -0.046636723 -0.049372956 -0.009636095 -0.10556959 -0.12167656 -0.043745212
-0.06693989 -0.033682585 -0.05816021 -0.033507932 0.00938093 0.018551318 0.022703929 -0.004847935
-0.029410461 -0.03019168 -0.010168864 -0.020618416 0.0062342896 0.034313787 0.021451011 -0.041443173
-0.04890966 0.0187495 0.009601313 -0.045895044 -0.05194457 -0.021678988 -0.043343782 0.022899358
0.012768978 -0.018962277 -0.02262221 0.012800431 0.046736877 -0.0037313132 -0.014180874 -0.0039993646
0.03318734 -0.024981182 -0.020694315 -0.029927652 0.012375734 -0.027283013 0.037792247 -0.0068594334
-0.034104135 -0.037666928 -0.051741906 -0.010019721 -0.10884746 0.042009402 0.015244957 0.017198646
0.009490733 -0.01657549 0.011994968 0.016794607 0.06802023 0.054139275 -0.04193398 -0.051480435
-0.008529988 -0.07217647 -0.03994277 -0.010399685 0.020838259 0.0015849369 -0.00056139374 0.010932334
0.059686754 0.06274645 -0.044292774 0.024082093 0.03252866 -0.034336295 -0.079560004 -0.060319807
0.000950282 -0.010283857 0.02546646 -0.013967584 0.021018289 0.009419232 -0.019095777 0.020018565
0.023411416 -0.0065494347 -0.0038768188 -0.014990636 0.030529384 0.022034237 0.014497941 0.024064578
-0.025742702 0.0261314 0.043687884 0.0013395578 -0.012285415 -0.0031164323 -0.015102847 0.021995354
0.040803272 -0.004834708 -0.06804431 -0.017933244 0.028121883 0.014324227 -0.105478875 -0.016942086
0.039331146 0.037248824 0.003599114 0.008413886 0.06418335 0.040183444 -0.061305195 -0.07782828
0.045376133 -0.028102506 0.00101804 -0.008160938 0.008818075 0.015430809 0.03322754 0.0073756557

fc1.bias f4 [10]
00000000: 2cce 613a 7f35 1a3c 5850 a23b 370f f43b
00000010: 897c f63b b4d7 0d3d 9eff 20bd 3643 97bc
00000020: f7c8 97bc 0db2 7b3c
0.0008613791 0.0094121685 0.0049534254 0.007448103 0.00752217 0.03462954 -0.039306276 -0.018464666
-0.018528445 0.015362275
