model/CNN_best_0.9925.pth (torch, 303751 bytes, 10 tensors)

conv1.weight f4 [32, 1, 3, 3]
000000 a4 32 4f 3e 19 68 63 be dc 13 83 3e 97 94 6a be
       0.20234162 -0.22207679 0.2560109 -0.22908245
000010 2c ce d0 be da a9 d4 3e dd be dd 3c c7 53 ef 3d
       -0.40782297 0.41535836 0.02706855 0.11685901
000020 6e 0f 16 3d 7d 37 a5 be 86 ec e7 3d cf 25 ae bd
       0.03663581 -0.32268897 0.1132441 -0.08503305
000030 a3 85 92 be b3 5e a1 be 5e 17 bf 3d fb 52 6a be
       -0.28617582 -0.31517562 0.09330629 -0.22883217
000040 f6 f4 cf 3e 6a f4 af 3e 2f 8a b9 3d ca d8 89 3e
       0.40616578 0.3436616 0.090595596 0.2692321
000050 c1 c7 26 3e 80 0b 00 3e 73 59 db bc ad 8c 96 3e
       0.16287138 0.12504387 -0.026776051 0.29404202
000060 b1 d0 b7 3e 8e 7e 9a 3e 48 77 22 3e 4d 1c 1c bd
       0.35901406 0.3017468 0.15865815 -0.038112927
000070 56 5a 62 be cd c1 62 bc 77 a5 f6 3e 38 17 96 3d
       -0.22104773 -0.013840151 0.48173115 0.073286474
000080 f6 7b ea bd a1 9b cd 3e 73 f9 b7 3d ce 34 cf be
       -0.11449425 0.40157798 0.089831255 -0.40469974
000090 c7 93 1b 3e 0b ae ce 3e f3 35 85 3e 9d 43 9d 3d
       0.15193091 0.4036716 0.26017722 0.07678912
0000a0 33 9f 24 3e 3b 33 5c bb 81 0d 06 bd 2f b8 26 bd
       0.16076355 -0.0033599872 -0.032727722 -0.040702995
0000b0 05 9c 37 bd 80 79 aa 3e 2d 41 dd 3d a0 30 cc 3d
       -0.044826526 0.33295822 0.10803447 0.09970212
0000c0 f1 98 98 be 1a 7e 07 be 96 41 40 be e5 df 77 be
       -0.29804185 -0.13231698 -0.18775019 -0.24206503
0000d0 63 2e 55 be 32 ed 9a be 8e ba a5 3e b9 fe 4f bd
       -0.20818476 -0.3025909 0.32368892 -0.05078003
0000e0 85 57 3d 3d a2 50 95 3e 5a bc 8f 3e b5 06 93 bc
       0.046226043 0.2916308 0.28073388 -0.017947534
0000f0 59 9e 55 be c3 71 b3 be 5f 25 1e 3d fd b1 2c be
       -0.20861186 -0.3504773 0.03860986 -0.16864772
000100 f1 f4 55 3e 7d 89 e7 3d 29 85 8b 3e 82 e4 62 3e
       0.20894219 0.11305521 0.2725003 0.22157481
000110 ce c6 05 3f 70 a2 c9 be c0 6d 63 3d 74 53 98 bd
       0.52256477 -0.39381742 0.055524588 -0.074377924
000120 62 00 9d 3e 52 12 8d be 14 d2 3b bd bc 7d d1 3e
       0.30664355 -0.2755304 -0.045854643 0.4091624
000130 f7 6e b5 3e 05 b5 9b 3e 93 e4 65 be d6 6e 22 3e
       0.35436222 0.30411544 -0.22450475 0.15862593
000140 b3 e4 10 3e cb 4e bd bd e7 ab c4 3e c1 e2 2c 3e
       0.14149742 -0.09243544 0.384124 0.16883375
000150 61 cd 20 3e e9 2f 3b be 3a cd d4 3e 21 0f 0d be
       0.15703346 -0.18279995 0.41562825 -0.13775302
000160 6a c3 75 3d 54 61 a0 be 84 9a 8e 3d 8a 07 66 3b
       0.060000814 -0.31324255 0.06963065 0.0035099708
000170 b1 84 ed 3e 80 eb 95 be 63 c0 92 3e 54 b2 90 bd
       0.46390298 -0.29281235 0.28662404 -0.070652634
000180 0f 63 a0 3d f7 3f af be 7f cf a5 3e 7c 1a d0 3e
       0.07831394 -0.3422849 0.3238487 0.40645206
000190 ba 18 47 be f5 af 21 be aa 9b 69 3b 59 74 a9 3d
       -0.19443026 -0.15789779 0.0035645762 0.08274145
0001a0 09 d8 97 be 31 86 14 3f 03 cc ed 3e 43 0d 75 be
       -0.2965701 0.5801726 0.4644471 -0.2393084
0001b0 4e e1 2a be a4 a8 49 bc 93 19 bd 3e 86 a1 d4 be
       -0.1668751 -0.012308273 0.36933574 -0.41529483
0001c0 67 20 d7 bb 0b 79 3c be cf 3f 5a bc 7d 7f 1a bf
       -0.006565142 -0.18405549 -0.013320877 -0.6035078
0001d0 2a 33 0a bf 76 f2 7c 3d 84 16 a9 be 84 5d c8 be
       -0.5398432 0.061754666 -0.3302499 -0.39133847
0001e0 72 52 1c be 77 4c 9d 3e 48 43 08 3c 60 60 db 3e
       -0.15265825 0.307224 0.008316822 0.42846966
0001f0 ca 23 65 3d 1f af 42 3e be c6 60 3e eb 3e 47 bd
       0.055942334 0.19012116 0.21950814 -0.048643988
000200 81 d5 79 be 99 92 e9 3e ed a3 95 3e ea dd 13 3e
       -0.24397852 0.45619658 0.29226628 0.14440122
000210 5d ee 9e 3d 14 0f 9a bd b4 aa bf be 3e 4f f0 3d
       0.07760308 -0.07522407 -0.37434924 0.11733864
000220 a2 ca 01 3e d7 eb 15 be 39 10 7c be b0 83 e6 3d
       0.12674955 -0.14640747 -0.24615563 0.11255586
000230 24 99 b5 3e 27 52 5f be a5 e0 9d be 64 1a b5 bd
       0.354684 -0.21808682 -0.30835453 -0.08842924
000240 ce ee 5a bd 56 d4 87 3e 0f 4e b9 3e f4 ed 8d 3e
       -0.0534504 0.26529187 0.36192366 0.27720606
000250 4e 1d ea 3c b5 f9 96 3d 0d 6f fc 3d f0 4e 4a 3e
       0.028578427 0.073718466 0.12325869 0.19756675
000260 b8 0b ee bd fb c8 b5 be 75 df 2c be ba 6e 5b be
       -0.11623329 -0.35504898 -0.16882117 -0.21428958
000270 c2 9b 48 3d 84 6e b8 be 37 43 e7 bc 49 90 64 3e
       0.048976667 -0.36021817 -0.028230293 0.22320665
000280 9d 88 71 3e c0 54 e0 3e 25 9f 87 3e ad e9 49 be
       0.2358727 0.4381466 0.26488605 -0.19718046
000290 7c 09 8d 3d aa ea d6 bd 60 27 1d be 8a 93 a0 3e
       0.068865746 -0.10493977 -0.15347052 0.31362563
0002a0 14 d2 52 3e 4c 4b 41 3e e2 8d af 3e ec 36 8e 3e
       0.20587951 0.1887638 0.34287935 0.27776277
0002b0 25 3f 49 3e 56 14 8d 3e 75 aa 10 be 9d e8 52 bc
       0.19652994 0.27554578 -0.14127524 -0.012872842
0002c0 ab 99 c8 3e 5b 8a 37 3e 84 b3 a6 3d 5e ea 1e be
       0.3917974 0.17923872 0.08139709 -0.15519091
0002d0 8d 62 47 be f8 e6 df be 66 fd 3c be 9f a1 54 bc
       -0.19471188 -0.43730903 -0.18456039 -0.012977987
0002e0 ea 76 37 be 01 38 24 bd 2e 48 96 3e 37 b8 af 3e
       -0.17916456 -0.040092472 0.29351944 0.34320232
0002f0 93 b6 ae 3e 51 67 28 be d6 58 3f 3e b4 ac 14 3e
       0.34123668 -0.16445662 0.18686232 0.14519006
000300 f5 7c d3 be 0e b5 9b be 7e aa 9f 3e 19 d5 6f be
       -0.41306272 -0.3041157 0.31184763 -0.23421134
000310 42 f5 a5 bd 2f ec 90 3e 04 f4 01 be 74 ef c7 be
       -0.0810342 0.28305194 -0.12690741 -0.39049876
000320 c2 c7 68 be e4 fe c0 be fa 3c 95 be 52 60 b7 3e
       -0.22732452 -0.37694466 -0.29148084 0.35815674
000330 e1 fd 3f 3e 7d e5 e0 3d 37 7e 20 3e 16 68 98 3e
       0.18749191 0.109812714 0.15673147 0.2976691
000340 07 49 c0 3e 32 d0 d2 3e c9 00 38 be 56 4f 0b 3e
       0.37555715 0.41174465 -0.1796905 0.13604483
000350 bc 7f 26 be f7 3e 62 be be 79 35 be d3 5e 98 3e
       -0.16259664 -0.22094332 -0.17722222 0.29759845
000360 7b 87 b5 3d 59 64 8b 3d 75 4f 4e be 24 15 8d 3e
       0.088637315 0.06806249 -0.20147498 0.27555192
000370 1e dd 82 3e 7c b4 ad 3e 57 4e 6b 3e 3d 08 d7 3e
       0.25559324 0.3392676 0.22979103 0.41998473
000380 34 8e 48 be f0 5f 8e 3e 6e 20 91 3e 27 c8 cf 3e
       -0.19585496 0.2780757 0.28345054 0.40582392
000390 c5 85 19 be f9 1b f0 bd d4 fb 2f 3e 09 cf 85 be
       -0.14992435 -0.11724085 0.17185909 -0.26134518
0003a0 a7 ba aa be 20 48 4f bb 2d 8b 8f 3e 0f f3 9b be
       -0.3334553 -0.0031628683 0.2803587 -0.30458876
0003b0 8f e2 9a bd da d2 bb 3e 4c 96 0d 3d 70 f4 ac 3e
       -0.07562744 0.36684304 0.034567162 0.3378024
0003c0 a4 61 a5 bc a3 ed 89 3e a3 b0 3a 3e 11 da ef 3e
       -0.02018816 0.26939115 0.18231444 0.4684606
0003d0 29 9f aa be 43 19 bc be 3a e9 80 3d 34 76 fe bb
       -0.33324555 -0.36738023 0.062944844 -0.0077655558
0003e0 c1 d1 c6 bd 8b 1c c0 3e 7e d5 b7 3d 7f 50 2e 3e
       -0.09707976 0.37521777 0.08976267 0.17022894
0003f0 39 15 32 be 59 65 d1 be ea db bc be 83 3b 19 3d
       -0.17390908 -0.40897635 -0.3688653 0.03741027

conv1.bias f4 [32]
000000 82 01 6b 3e 79 ff b9 3e 23 9d 0c be e7 0a 86 3e
       0.22949794 0.36327723 -0.13731818 0.26180193
000010 09 7d 3b be b7 54 93 3e 11 40 42 3e 13 12 3a 3d
       -0.18309416 0.2877557 0.18969752 0.045427393
000020 d5 6b b2 3d c4 a5 bf 3d 37 8b 41 3d 00 15 09 3b
       0.087119736 0.09357789 0.047251906 0.0020917058
000030 3a 6a b4 3e d0 c8 a7 3d 71 b8 92 3e 3e 02 92 3e
       0.35237294 0.08192599 0.28656343 0.28517336
000040 f7 38 0b 3e 35 93 82 3e d7 32 08 be f8 24 25 3e
       0.13595949 0.25502935 -0.13300644 0.16127384
000050 12 fe 20 3e e7 81 8d bd de e9 9f 3e 4d 71 1f 3e
       0.1572192 -0.069095425 0.31233114 0.15570565
000060 5b 3a 8e bd 5d bd 63 3e 13 42 6f 3d 63 e4 a7 bd
       -0.06944724 0.22240205 0.058412623 -0.08197858
000070 5f 44 ae 3e 77 a5 aa be fa fd 64 3e 23 bd 6e 3d
       0.34036538 -0.33329365 0.2236251 0.058285844

conv2.weight f4 [32, 32, 3, 3]
000000 e2 b5 b0 3c 55 98 34 3e 36 57 1c 3d 56 b2 96 3d
       0.021571103 0.17636235 0.03816911 0.07358234
000010 67 9f b0 3d 0c 0d 89 3d d6 5a 19 bd d5 d1 4d 3c
       0.086241536 0.066919416 -0.037440144 0.012562235
000020 21 c5 d5 3c f2 fb 91 bd 9c 94 ea 3d 14 5c 16 3e
       0.026094975 -0.07128133 0.11454126 0.14683563
000030 19 f3 97 3c ad 61 ca 3d 4e 3e 60 3d 2b d4 bf 3b
       0.018548535 0.098819114 0.05474692 0.00585415
000040 68 4f 16 3c b6 79 03 bd b9 f8 ab bd 29 66 a5 bd
       0.009174205 -0.032098494 -0.083970495 -0.08076126
000050 79 45 d7 3c 16 3c a7 3d 3b 4e d1 bc 1a b3 c0 3c
       0.026278244 0.08165757 -0.025549999 0.023522902
000060 ba f8 9e 3d 61 a2 0c 3e 4d 56 92 3d ed e0 24 3e
       0.077622846 0.13733818 0.07145367 0.16101427
000070 70 2b e5 bc d1 d0 43 be 4a 4c 0e 3e 4b 58 85 3d
       -0.027974814 -0.19122626 0.1389629 0.06510981
000080 2f 86 89 3d b7 40 f5 3d 69 60 19 3e 2b 35 be 3d
       0.067150466 0.11975234 0.14978184 0.09287485
000090 7a 4a 15 3c 0a 39 7a bd c0 aa 36 3d a0 61 15 be
       0.009111995 -0.061089553 0.044596434 -0.14588022
0000a0 ca 09 94 be 9b ce 06 bd a6 f1 84 bd 4b 29 65 bd
       -0.28913718 -0.032911878 -0.06491403 -0.055947583
0000b0 38 34 d3 bc c6 06 30 3d 25 5b e2 3d 8b 71 c5 3d
       -0.025781736 0.04297521 0.11052541 0.09640797
0000c0 ce 7a 6d bd 76 8f 43 be a2 19 c1 bc 9a 9f 50 be
       -0.057978444 -0.19097695 -0.023571793 -0.20373383
0000d0 86 71 90 be f8 97 ff bd ef 75 11 3d 07 b6 50 bd
       -0.28211612 -0.124801576 0.03551286 -0.050954845
0000e0 09 af c0 bd 88 04 56 bd 18 02 d3 bd b9 e4 7a be
       -0.09408385 -0.052250415 -0.10303134 -0.24501313
0000f0 ae ec e9 3d 5c ff 89 3d fc ab 43 3c de 8a b0 be
       0.11422096 0.06738159 0.01194286 -0.34480947
000100 98 ae eb bd 8d c9 0f bd e9 0e 1e be b1 33 15 be
       -0.115079105 -0.035104323 -0.15435375 -0.145705
000110 d0 f2 6a bc c5 15 00 3e 3a 7c 62 3d ba 0a 79 3d
       -0.014340118 0.12508304 0.055294253 0.060801245
000120 b2 b7 1f bd 81 90 c7 bd bc 08 ce bd ed 27 9d 3d
       -0.038993545 -0.09744359 -0.1006026 0.07673631
000130 f1 a6 28 3d d6 81 5e bd c6 b5 4a 3e e8 f5 0d 3e
       0.041174833 -0.05432304 0.19795904 0.13863337
000140 25 5b 66 3d 91 ab f8 bd dd 4b 1e bc b4 79 38 3d
       0.056239266 -0.12142099 -0.009661642 0.04503794
000150 88 cf 8e be 8d 34 7b be 31 ab b2 bd 74 72 dd bd
       -0.2789271 -0.24531765 -0.087240584 -0.10812846
000160 a1 15 cc 3c f2 9d a1 bb da 93 d9 bd 86 e7 4f 3d
       0.024912657 -0.0049321586 -0.106239036 0.050757907
000170 13 7c 26 3e d9 22 3f be 3c fb 8a 3d ad 07 5f bc
       0.16258268 -0.18665637 0.067862004 -0.01361267
000180 20 da e4 3c 62 e2 0c 3d 4e 26 0a bd b3 b8 59 3e
       0.027936041 0.034395583 -0.033727936 0.21261863
000190 c2 fc 86 bd 55 eb 6b be e3 20 bb 3e c7 3f 2a 3e
       -0.065911785 -0.23038991 0.36548528 0.16625892
0001a0 68 97 9d 3d c1 cd 84 3e a0 59 29 3e 64 c4 42 3e
       0.07694894 0.25938228 0.16538095 0.1902023
0001b0 1e 2c 60 3d c3 db 57 3d e2 e8 44 3d 44 15 b8 bc
       0.054729573 0.052699815 0.048073657 -0.022471078
0001c0 8a 76 0c ba 99 af d8 bd a6 fd 02 be ba 63 17 be
       -0.000535824 -0.105803676 -0.12792072 -0.14784136
0001d0 21 83 05 be b5 57 ed 3d 90 f2 a7 bd 1c 94 36 bd
       -0.13038303 0.115889944 -0.08200562 -0.04457484
0001e0 56 a3 cf 3e 5b f9 c4 3e dc 5e 3b 3e 0b d5 83 3e
       0.40554303 0.38471493 0.18297905 0.25748476
0001f0 89 c6 b1 3e 30 f9 5b 3e fd 04 05 3c 71 c9 c5 bd
       0.34721783 0.21481776 0.008118865 -0.096575625
000200 00 5c 09 be 37 23 ae bb 1d 24 60 bd 4e af eb bd
       -0.13414001 -0.0053142565 -0.05472194 -0.11508046
000210 ab f5 d6 3d 21 e1 2f 3d 55 f9 b2 bb 0b 95 ad bd
       0.10496076 0.04293931 -0.0054618516 -0.08475693
000220 23 78 cd 39 ad 73 bd 3d ee 37 8c bd c4 79 0a be
       0.00039190156 0.09250579 -0.06846605 -0.13523012
000230 76 24 e5 3c dc d4 8c bd ba ea 10 be 04 5b c8 bd
       0.027971487 -0.06876537 -0.14152041 -0.09782985
000240 98 4e 82 3d 6e 61 d8 bc 43 d8 0e bd 80 5f e5 3c
       0.06362647 -0.026413646 -0.034874212 0.02799964
000250 41 92 4b bd 76 60 1f bd 9a d5 10 3d c0 94 01 3e
       -0.049700025 -0.03891035 0.035359956 0.126544
000260 0b 58 ca 3c de 36 f9 3d 1f 6c 8d 3d c8 81 a1 3d
       0.024700185 0.12168668 0.06905388 0.07886082
000270 f9 2f 02 3e a4 59 5d 3e d5 03 36 3e f5 24 d0 3d
       0.12713613 0.21616226 0.177749 0.10163299
000280 51 4a 49 3e 55 3f 1d 3e 46 42 10 be 05 ac 42 3d
       0.19657256 0.1535619 -0.14087781 0.04752733
000290 8c 17 55 3d f4 7f e1 3d 81 c8 2f 3e b7 6d 16 3d
       0.05202441 0.11010733 0.1716633 0.036725726
0002a0 d7 fc 7e 3d ad 9c 1f 3e 08 10 f9 3c e7 7d 62 bc
       0.062252846 0.15587111 0.030403152 -0.013823963
0002b0 ed 90 a9 bb dd 43 b8 3c a1 5a 0e bd 5e 93 a5 3b
       -0.005174747 0.022493297 -0.0347544 0.005052968
0002c0 4d 68 52 bd ab 3a bc 3d 2f 4a a3 3c 47 fc b1 3b
       -0.051369 0.091908775 0.019932834 0.005431685
0002d0 33 77 84 3d fb 01 85 3d 69 32 0f 3c ff 2e 8a 3e
       0.06468048 0.06494518 0.008740046 0.2698898
0002e0 51 9b a3 3e 56 d0 3a 3e 00 af 4e 3e 98 d1 73 3e
       0.31954435 0.18243536 0.20183945 0.23810422
0002f0 a0 a8 1a 3e 9c 68 61 3c 25 fa 5e b8 9c 87 08 bd
       0.15103388 0.013757851 -5.316189e-05 -0.033332452
000300 3a 3c 8c bc b5 2c a7 bc 12 20 ac 3c 66 a0 7b 3c
       -0.017118562 -0.02040706 0.021011386 0.015358066
000310 d5 e6 8b 3c ae 90 21 be 4f aa af bd e7 90 37 3d
       0.017077843 -0.15777847 -0.08577406 0.044815924
000320 36 73 c1 3c 8e 27 ce 3c d1 60 15 3d 82 78 35 3d
       0.023614507 0.025165346 0.036469284 0.04430438
000330 35 80 c5 bc f5 3c 02 3d 7f c1 9a 3c 8d 4b 3f bd
       -0.024108985 0.031796414 0.018891094 -0.04670291
000340 2b ab 59 3d f2 2d aa 3d 30 5e 07 be 47 44 bd bd
       0.053141754 0.083095446 -0.13219523 -0.092415385
000350 2b 77 00 be 77 8d 34 3d 30 f9 97 bd e8 ee 48 bd
       -0.12545459 0.044080224 -0.074205756 -0.049055964
000360 0f 28 bd bd 7c 95 4c be ec 0c 11 be 1d a6 00 3e
       -0.09236156 -0.19978899 -0.14165086 0.12563367
000370 ee 3a 16 bd a6 4b 03 3c 66 26 21 3e 7c 77 d8 3d
       -0.036677293 0.008013641 0.15737304 0.10569665
000380 dc 64 1e 3e fa 49 21 bd 05 c3 21 3e a6 6d 47 3d
       0.15468162 -0.03937719 0.1579705 0.048688553
000390 33 bf 91 be 3c 0d 1b be 81 48 1b be 66 53 1b be
       -0.28466186 -0.15141767 -0.15164377 -0.15168533
0003a0 77 90 19 be 98 b0 1f be f8 d1 46 bd 8c 31 f3 bd
       -0.14996515 -0.15594709 -0.048540086 -0.11874685
0003b0 27 5d 91 bd e9 1c 78 3d 24 e5 76 3c 41 1f 58 3b
       -0.070978455 0.060574446 0.01506928 0.0032977613
0003c0 fc 7b f8 3d da 0f d0 3d 2b 25 c8 3d 6a 0a 0d 3e
       0.12133023 0.101592734 0.09772714 0.13773504
0003d0 31 34 74 bd 0e 80 83 be 0b c3 ae 3e 3d 7d 98 3e
       -0.059620086 -0.25683635 0.3413318 0.2978305
0003e0 ee c8 c2 be 58 eb 29 3e bd 36 ee 3d 80 c9 ac 3a
       -0.38043922 0.16593683 0.11631534 0.001318261
0003f0 75 13 65 3d e8 3e 5a 3c fb f4 be 3c 33 93 40 3e
       0.05592676 0.013320662 0.023310175 0.18806152

conv2.bias f4 [32]
000000 2e 52 20 3d 56 07 0d 3d ce 80 49 3d 48 c4 e8 bc
       0.039140873 0.034430824 0.049195103 -0.028413907
000010 32 8a a4 3d d1 f9 a8 3b 11 9a 5f 3d ee 04 92 bc
       0.08034171 0.0051567336 0.05459029 -0.017824616
000020 74 aa 8d 3d f6 01 fc bc c2 f7 86 3d 06 44 c8 bc
       0.06917277 -0.030762654 0.06590225 -0.024446499
000030 4c 47 64 3d 7c c3 15 3c f8 38 e5 3c 6f 50 03 bc
       0.055732056 0.009140845 0.027981266 -0.008014782
000040 84 a7 a1 3d 1a 2a 2e bb 7b ae ad bc e3 e0 9c 3d
       0.07893279 -0.0026575387 -0.021201363 0.07660081
000050 09 82 85 3d dc 68 b4 3d 7d 72 cf bc 0c 1a 43 3d
       0.06518943 0.08809063 -0.025323147 0.047632262
000060 a3 b8 fe 3c 2f b7 43 3c 5c 22 23 3d f0 9f 6e bd
       0.031093901 0.01194553 0.03982769 -0.058257997
000070 09 fc 93 3d 1b ef 8b 3d 28 93 f1 3c 25 25 18 bd
       0.07225806 0.06832715 0.029489115 -0.0371448

conv3.weight f4 [64, 32, 3, 3]
000000 5a 03 6a bb f5 81 95 bc 4b 6b b2 3d 99 44 12 bd
       -0.0035707564 -0.018250445 0.08711871 -0.03570995
000010 76 71 0c be 00 ae 18 be 0e 4e 54 bb 8a e7 23 3d
       -0.13715157 -0.14910126 -0.0032395157 0.040015735
000020 d3 37 70 bd f4 b5 94 3d 46 cd 97 bd c4 96 d7 bd
       -0.058646988 0.07261267 -0.074122 -0.10526803
000030 67 bb 9e bd f8 88 54 bd 56 d1 8c 3d 49 6e 88 3d
       -0.07750588 -0.051888436 0.06875865 0.0666166
000040 1d 42 e3 3c 65 27 18 3d 90 19 15 3b f1 df ee 3b
       0.027741486 0.037146945 0.0022750832 0.0072898795
000050 4c 74 6f 3b b4 1c 0d bd b4 3c 1e 3c 83 a2 98 3d
       0.0036537824 -0.0344512 0.009658027 0.07452872
000060 58 8d 90 3d 5d 42 77 3c 2b 00 ed 3c 32 8c 73 bc
       0.07058209 0.015091506 0.028930744 -0.014864968
000070 8e 59 11 be f7 1a d0 3b 22 32 8e bd 66 d5 2b 3d
       -0.14194319 0.0063508707 -0.06943156 0.04195156
000080 e7 cc a9 3d d4 cd 5a 3d 7e 13 3a bd 07 72 21 3d
       0.08291035 0.05341895 -0.045428745 0.039415386
000090 7d 09 0a 3d 44 62 26 bc a3 53 b3 3c 56 c0 15 3d
       0.033700455 -0.010155264 0.021890467 0.03656038
0000a0 50 d6 70 3c 34 49 b4 3a 06 1f 31 bd 47 b8 6d bd
       0.014699534 0.0013754726 -0.043242477 -0.05803707
0000b0 f4 89 16 bd ec b2 ec ba 28 bb 09 bd 30 01 00 3a
       -0.036752656 -0.0018058694 -0.03362575 0.00048829895
0000c0 ea dc f9 3c 78 d2 52 3d 1d 91 98 3d 54 e7 7c 3d
       0.030500848 0.05147025 0.07449553 0.06174405
0000d0 bf 26 0e 3d 80 ff 4d bd de f8 53 bd ea e4 32 3d
       0.03470492 -0.050292492 -0.05175101 0.04367534
0000e0 6b d3 81 3d 52 b8 21 bc ac 1f ca bc e9 2c 3b 3b
       0.06339153 -0.009870606 -0.024673305 0.0028560704
0000f0 42 c9 d0 3c 3e 20 b7 bb 25 72 b2 3c 36 5e 63 bc
       0.025486592 -0.0055885604 0.021782944 -0.013877442
000100 24 92 76 3d 2d fd 04 3c 8c db bd 3c b0 cb 85 3c
       0.060197964 0.008117002 0.023175977 0.016332477
000110 2d 86 76 3d 4b 51 1b 3d bd 7c 6d 3d 8f 0f 66 3d
       0.060186554 0.037919324 0.057980288 0.05616718
000120 d6 c9 20 bd 2a b0 06 bd 92 26 2d 3d b2 c3 04 3d
       -0.039254986 -0.032882847 0.04227311 0.032413192
000130 33 78 1d 3c a6 65 9f 3d 87 2f 3e 3d 60 68 6e bd
       0.009611177 0.0778306 0.046432044 -0.05820501
000140 9c 8d 5e bb 11 d4 4c bd 0d cf c3 bb d2 de 87 3d
       -0.0033958917 -0.05000693 -0.00597561 0.066342965
000150 a7 dd c6 3c 5b 84 68 bd 6c 0c b2 bc 1c 58 16 3d
       0.024275614 -0.05676685 -0.021734439 0.03670512
000160 2f 10 10 3d 78 56 cf bc df 3c a1 bc f2 2f 8a bc
       0.035171684 -0.025309786 -0.019682346 -0.016868565
000170 fa 63 9c 3d 30 13 2b bd e9 e3 c8 3c 9b ed ad bc
       0.076362565 -0.041766346 0.024522739 -0.021231463
000180 9c 9b 73 3d c1 f1 15 3d 7f f3 86 3c bb db 7a bd
       0.059474573 0.036607508 0.01647353 -0.061244708
000190 f7 cd 94 bd ab 7d f9 3c 61 66 e0 3c 74 bc 6a 3d
       -0.07265847 0.030455431 0.027392568 0.05730863
0001a0 73 b5 78 3d 26 69 2e bd 64 ec a4 bb a1 17 68 bd
       0.06071992 -0.042580746 -0.005033063 -0.05666316
0001b0 89 f3 2d bd 2e 07 8a 3d b0 02 bb 3d 1a 58 e5 ba
       -0.04246858 0.06739651 0.09131372 -0.001749757
0001c0 45 9f 8d 3d 6a d8 4b 3d fe 8f 48 3c 5b ba 1d bd
       0.06915144 0.049766935 0.012241362 -0.0385078
0001d0 61 4c 1e bd c3 c9 3f bb 7e d9 64 3b 29 fd 03 3d
       -0.03864706 -0.0029264546 0.0034919675 0.032223854
0001e0 b8 12 94 3d 44 67 8b 3d c0 97 3b bd cc 91 9c 3b
       0.07230133 0.06806806 -0.045799017 0.0047781225
0001f0 29 e3 b0 bd 0b 97 e8 bc f2 08 83 3c 8c d1 fb bc
       -0.08637077 -0.028392335 0.015995476 -0.030739568
000200 2e 3f 71 bb a6 0f f7 bc 83 06 1a 3d 28 84 d6 3c
       -0.003681134 -0.030158829 0.037603866 0.026186064
000210 1f 50 2d 3d 19 f4 e3 3c a9 f3 cf bc f1 ec 77 3c
       0.042312738 0.027826356 -0.02538474 0.015132175
000220 4d 5d 96 3d 58 0e d1 3c 2a 11 d1 3d 05 a3 d0 bc
       0.073420145 0.025519535 0.10208352 -0.025468359
000230 99 25 27 3d 26 92 87 3c 8d 0e b6 bc 05 69 04 3d
       0.04080734 0.016549181 -0.022223735 0.032326717
000240 0a bd 87 bc 6e ad a1 3c bf c7 36 3d a3 66 3b 3d
       -0.016569633 0.019736018 0.044624086 0.04575218
000250 1f a1 7d bd a4 d6 d6 bd a0 4c 37 3b 25 f2 b5 bc
       -0.061921235 -0.10490158 0.0027969256 -0.02221019
000260 2b df 96 bc e4 2a b8 3c 5e 3d 41 bd 90 5f c7 bc
       -0.018416962 0.02248139 -0.047177665 -0.02433756
000270 26 9b 22 3d a4 93 69 3d 79 10 30 bd 17 e1 9a bc
       0.039698742 0.057025567 -0.04298446 -0.01890616
000280 68 7e 5b 3d aa ac f7 bc d7 0b 28 3d 8e 2a 4f bd
       0.053587347 -0.0302337 0.041026916 -0.050577693
000290 7a dd a6 bb 0c f9 e5 bb 60 f6 84 bb 4a f0 62 bd
       -0.00509232 -0.007018214 -0.0040576905 -0.05540494
0002a0 12 e4 bb 3c 4e ef ea bc 59 50 0f 3d d2 36 86 3c
       0.0229359 -0.028678562 0.034988735 0.016383562
0002b0 67 77 f5 bc 04 63 35 be b9 af d9 bd 87 5a a3 bc
       -0.029964162 -0.17713553 -0.106292196 -0.019940628
0002c0 00 53 29 be 9a ec 10 bd 8d a8 a1 bd c8 5f a3 bd
       -0.16535568 -0.03538189 -0.07893477 -0.07977253
0002d0 e4 b2 8e bc c2 af a6 bd 7e 1e e7 3b f0 ce 98 bd
       -0.017419286 -0.08138992 0.0070531955 -0.07461345
0002e0 4e 11 63 3c 15 ff ab 3d 9c e4 3a 3d 54 18 66 3d
       0.013859106 0.083982624 0.045628175 0.056175545
0002f0 88 3c 55 3b bb 8d 77 3d 57 9b 63 3d b9 f0 fb bc
       0.00325373 0.0604379 0.055568065 -0.030754434
000300 52 56 42 bd 9d c1 6f 3d 34 ac 77 bc 51 95 99 bb
       -0.047445603 0.058534253 -0.01511674 -0.0046869894
000310 3e ba 9a bc ae 87 d3 3c 86 e6 68 3d 21 23 10 3d
       -0.018887635 0.025821533 0.05686047 0.03518975
000320 57 66 16 3d df 1c 57 bd 85 20 11 bd c4 18 18 bd
       0.036718693 -0.052517768 -0.035431404 -0.037132993
000330 3d 80 80 3d b0 f4 02 3c 37 40 69 3d 1f f0 92 bc
       0.062744595 0.007992908 0.056946006 -0.017936764
000340 0b 00 e0 3c 23 33 ba bc b1 8e 5d bc d8 34 5c 3d
       0.02734377 -0.022729462 -0.01352279 0.053761333
000350 d9 8b f9 3c 1b c3 36 3d 4a e6 35 3c 2a 38 32 bd
       0.030462192 0.04461966 0.0111022685 -0.043510593
000360 17 1f d4 3c 3b 3d b3 bd 6a be 9d bc 17 48 61 bc
       0.025893731 -0.08751913 -0.019255836 -0.013750098
000370 e7 6c 17 3c 8b 26 db 3d 35 cf 24 39 8e 13 af 3c
       0.009242273 0.10700711 0.0001571745 0.02137163
000380 22 87 23 bd 0b da e9 bc 00 f6 c9 3b 49 69 ff 3b
       -0.039923795 -0.028546354 0.0061633587 0.0077945334
000390 6f 2d af bc 04 79 9c bb d1 a0 97 3c 16 e0 61 3c
       -0.02138397 -0.0047751684 0.0185093 0.013786336
0003a0 ab 55 19 3d e1 1c 32 bd 47 a6 9e bd b7 d4 90 bc
       0.037435215 -0.043484572 -0.07746559 -0.017679555
0003b0 9e 41 de 3d 49 c6 77 3a 97 cd 80 3d 08 71 fb bb
       0.10852359 0.0009451849 0.06289213 -0.0076733865
0003c0 e8 e6 c6 3c 60 4a e1 bc dd 20 e4 bb ff 59 f9 3c
       0.024280027 -0.027501285 -0.0069619254 0.030438421
0003d0 b1 21 f3 bb 36 40 08 3d f3 72 4f 3d f2 28 a3 bc
       -0.007419788 0.03326436 0.050646733 -0.019916985
0003e0 1d e4 76 3d 37 e0 27 3b ee 46 11 bd f1 80 4f 3a
       0.06027614 0.002561582 -0.035468034 0.0007915637
0003f0 d6 7a 6c 3c 22 73 06 3a 55 12 46 3d ff 27 34 3d
       0.014433583 0.00051288505 0.048357327 0.043983456

conv3.bias f4 [64]
000000 2f da 82 3c a0 06 08 3d f5 22 20 3d 47 e0 e8 bb
       0.015973179 0.033209443 0.039095838 -0.007106814
000010 11 25 ea bc d0 19 69 bc 59 34 a5 bc 51 26 37 3d
       -0.028582128 -0.014227346 -0.020166563 0.044714276
000020 9f bb 01 bd b4 fd ff bc 40 f1 97 3d 12 80 44 3c
       -0.03167307 -0.031248905 0.07419062 0.011993425
000030 d9 77 92 bd 3d 68 06 3d 32 6b 92 39 d6 08 3c 3d
       -0.071517654 0.032814253 0.00027927157 0.045906864
000040 48 cc f1 3c 1f e1 93 bd e3 cb 31 bd 0b cf 35 3d
       0.029516354 -0.07220673 -0.043407332 0.044386905
000050 a6 64 29 3c 22 b8 a4 3d aa 86 68 3c f5 65 db 3c
       0.010338938 0.08042933 0.014192263 0.026782015
000060 06 ae 8e 3c f9 73 3a bd 6c a4 2f 3d 46 20 37 3d
       0.017416965 -0.045520756 0.042881414 0.044708513
000070 5e 8a c5 3b bd e7 7e 3c de 62 4a 3d 61 3f 4e 3d
       0.0060284575 0.01555818 0.049410693 0.05035341
000080 8d e6 f9 3c 27 03 ae 3d 95 71 7a bd 0b dc 50 3d
       0.030505443 0.08496695 -0.061143477 0.0509911
000090 6d 96 d3 bb c9 87 75 3d 28 4e 20 3d 51 5c 83 3d
       -0.006457141 0.059943948 0.039137036 0.06414092
0000a0 3d 36 49 3d 8d 12 c0 bc 50 bd 22 3d ff 7a d4 bc
       0.04912399 -0.023446346 0.039731324 -0.025937555
0000b0 ef 74 fd bc 95 25 7f 3d 7e 77 99 3d f9 a6 1c bb
       -0.030939547 0.0622917 0.074934945 -0.0023903234
0000c0 b0 31 8c bc 34 7e bb 3d bd 5f f1 bc 7d e8 53 bd
       -0.017113537 0.09154931 -0.029464597 -0.05173539
0000d0 28 a4 8c 3d 7d 85 90 bc 28 a0 d2 3d 87 a9 bb 3d
       0.06867248 -0.017641777 0.10284454 0.09163194
0000e0 8c 01 56 bd d2 db ba 3d ed d6 29 3d d7 ba 1e 3d
       -0.05224757 0.09123959 0.041464735 0.038752403
0000f0 ea d7 b6 bc 43 fa b8 3d 40 e5 de bc ba 1b 98 bd
       -0.022319753 0.09032109 -0.027208924 -0.074271634

conv4.weight f4 [64, 64, 3, 3]
000000 6b 47 36 bc bc 67 60 3c 39 4a 78 bd f8 c6 52 3c
       -0.011125426 0.013696607 -0.06061766 0.012864821
000010 21 86 6a bc 90 fd 63 3d f3 6c 16 3d 0a e2 fb bb
       -0.014314205 0.055661738 0.036724996 -0.007686858
000020 d6 6e 29 bc c5 74 27 3d d8 ba 49 3d d3 5f c5 b9
       -0.010341367 0.040882844 0.049250454 -0.00037646163
000030 e8 ed f6 3a b9 ea 08 bd 35 b1 69 bd 44 b8 77 3c
       0.0018839212 -0.033426974 -0.057053763 0.015119616
000040 13 13 c7 3c c1 4f d6 3c 30 cc 1f 3d db e9 2a bd
       0.024301087 0.026161077 0.039013088 -0.04172693
000050 ac 62 0e bd 76 d1 5b bc b0 46 cb 3c da 93 80 3c
       -0.03476207 -0.013416639 0.02481398 0.015695501
000060 9a 18 a7 3d 67 16 04 3c 81 f9 69 bc 13 ae 5a bb
       0.08158989 0.008061982 -0.014280678 -0.0033367916
000070 fa 37 92 bc 1d 52 7e 3b 83 2b 96 bc 31 b6 d8 3b
       -0.017848957 0.0038806268 -0.018331295 0.006613516
000080 83 83 46 3c c9 5a ae bc 13 c0 33 bc d4 af b3 bc
       0.012116316 -0.021283524 -0.010971087 -0.021934427
000090 7b 31 ab bc be 8c 18 3d e4 c6 02 3d 0b 8a 44 bc
       -0.020897618 0.037243597 0.031927958 -0.011995803
0000a0 e4 2e 50 3b 0e e9 db ba 7b f2 da 3c 22 3a 07 bd
       0.003176623 -0.001677783 0.026726952 -0.033014424
0000b0 bd 58 d6 3c 37 40 27 3d ad 66 13 be a5 33 3e bd
       0.02616536 0.040832724 -0.14394636 -0.04643597
0000c0 cb 63 07 3d 5a 39 9c bc cb 85 cc bd 4f 11 ca 3c
       0.033054154 -0.019070316 -0.099864565 0.024666457
0000d0 2a ec 19 3d af 25 94 3d c1 d4 8a bd eb 68 7b bd
       0.03757874 0.0723375 -0.06778861 -0.061379354
0000e0 c5 c6 61 bd ec f2 b3 ba 11 f0 66 3d ca 02 88 3c
       -0.055121202 -0.0013729013 0.05638129 0.016602892
0000f0 d2 d8 80 3c a9 e6 2b bb 16 35 d5 3b 13 59 9a bd
       0.015728388 -0.0026230013 0.0065065725 -0.07536521
000100 e7 7d bd 3c 4f 13 93 3d a8 a3 96 bc 34 94 40 bc
       0.023131324 0.07181417 -0.018388584 -0.011754084
000110 7c cd 53 bb 53 16 27 3d 65 1d b1 bb 07 5f 89 3d
       -0.0032318523 0.040792774 -0.0054051154 0.06707578
000120 7c 7d e4 3c be 89 c3 bb 6d 53 18 bc 39 27 9a bc
       0.027891867 -0.005967348 -0.009297234 -0.018817531
000130 fc 47 54 3d 23 d0 29 3b 4c 00 5e 3d 5f 28 0d bc
       0.051826462 0.0025911413 0.054199502 -0.008615582
000140 f0 79 97 bc 10 89 8a bc ba de 74 bd 64 6a 4e bc
       -0.018490762 -0.01691106 -0.05978272 -0.012598608
000150 40 23 83 3d 7c 6a 30 bc 55 ca ca bc 18 a1 ad bc
       0.06403208 -0.010767575 -0.024754683 -0.02119498
000160 99 b8 59 bd fd 1c 15 bd 0c 56 dd bd c6 27 c0 bd
       -0.05315456 -0.0364046 -0.10807428 -0.09382586
000170 b4 e2 df bd 7f 52 bc 3d e8 62 ae 3c 36 c1 c1 3c
       -0.10931912 0.091954224 0.021287397 0.0236517
000180 86 0b 16 3b d7 97 f1 39 67 50 91 3d e0 9c 44 bd
       0.0022895052 0.00046080232 0.07095414 -0.04800117
000190 e5 a1 89 bb 4e bb d2 bc be 53 bf 3b 82 02 11 3d
       -0.0042002075 -0.02572408 0.0058388403 0.035402782
0001a0 4c 41 ba bc 42 89 67 bc 8d 6d 66 3d 74 2b 92 3c
       -0.022736214 -0.014131846 0.05625682 0.017842986
0001b0 e2 a8 93 3b 83 b3 60 bb d9 bd 9f bc e5 62 14 3d
       0.0045062164 -0.0034286685 -0.019499706 0.036227126
0001c0 48 0a be 3c e5 1b 2b 3d f2 88 1e bb a7 6e 54 3d
       0.023198262 0.04177465 -0.0024190512 0.05186334
0001d0 d7 e5 62 3d 1c 03 8b 3c fa 73 a8 3b 05 22 3d 3b
       0.055394974 0.016969256 0.0051407786 0.0028859389
0001e0 eb 36 7c 3c 18 f0 22 3d e0 9b e9 3c 6b 4d 89 3d
       0.015393953 0.039779752 0.02851671 0.067042194
0001f0 99 b4 01 bd 63 3c 49 3b d9 7e a6 bb 40 38 b4 bd
       -0.031666372 0.003070616 -0.0050810394 -0.08799791
000200 10 c2 8b bb c3 74 c3 3d 2a ce d6 bd 6d 1f 80 bd
       -0.0042650774 0.09543755 -0.104885414 -0.06255994
000210 f8 fe 30 bc a7 54 98 3b 06 bf 5d bd bb da 08 3d
       -0.010802977 0.004648763 -0.054137252 0.033411723
000220 f3 60 8b bd c7 97 8d bd 29 39 72 3d 7d 36 15 bd
       -0.06805601 -0.06913715 0.059136543 -0.036428917
000230 b9 48 f9 3c 7c 68 0d 3d 93 6c db 3c 53 41 bd 3c
       0.030430185 0.034523472 0.02678517 0.023102438
000240 c2 3b 2e bd 7e 0b da bc d8 bf 86 bd 15 f7 86 bd
       -0.04253746 -0.026616808 -0.0657956 -0.06590096
000250 51 cb 8a bd 5d f7 2d bd 4e 81 aa bb af 5c df 3c
       -0.06777061 -0.042472232 -0.0052034026 0.027265875
000260 c1 14 6a 3d 1a aa 05 bd e6 e7 0f bd 5f ea 21 bc
       0.0571487 -0.032632925 -0.035133265 -0.009882539
000270 7a 2c 77 bc 0a fe 12 3d 42 e7 1c 3c 9d ab fc bb
       -0.015086288 0.0358868 0.0095766205 -0.0077108876
000280 57 46 19 3e c5 3e 1d 3e 5e 26 3f 3d ae 6b ec bc
       0.14968239 0.15355976 0.04666745 -0.02885994
000290 84 f5 95 bd ff 08 09 3c 27 05 12 3c 1f 89 52 3b
       -0.07322219 0.008363961 0.008912361 0.0032125188
0002a0 6d 56 3b 3d 85 e1 66 3d e3 e9 f4 bc 7e 4a 52 bc
       0.04573672 0.056367416 -0.029896682 -0.012835143
0002b0 13 1f ff bc 35 89 82 bc 65 7f 48 3c 10 db 19 bd
       -0.031142747 -0.015934566 0.0122374045 -0.03756243
0002c0 7c 68 53 3d 62 10 68 3d 71 a4 55 bd 02 fd b3 3b
       0.051613316 0.05665625 -0.052158777 0.0054928074
0002d0 7d 4b bb 3b 60 80 5c 3d 1a c5 dc 3a 3a 2b f6 3c
       0.005715786 0.053833365 0.0016843409 0.030049909
0002e0 2f e2 0f 3c b7 a7 43 bd 05 18 6b 3d 0d 06 40 bb
       0.008781954 -0.047767367 0.057395954 -0.0029300482
0002f0 12 24 82 3d 9f be a5 bc b7 d5 66 3d af 0a a4 3c
       0.06354536 -0.020232497 0.056356158 0.020024626
000300 78 f2 38 bc c5 c4 6f ba 08 3b a9 3c 58 98 90 bc
       -0.011288278 -0.00091464474 0.020658031 -0.017650768
000310 5c cb 6f bc 2a b2 55 bc d2 70 22 bd b2 53 66 bd
       -0.014635887 -0.013042966 -0.039658375 -0.05623216
000320 0e bc 9f bd 39 b3 70 3d 2f 1c d3 3d f9 0f 96 3d
       -0.077995405 0.05876467 0.1030811 0.07327265
000330 56 6d 16 3d a6 55 31 b9 3b 28 85 bc 1b ee a6 bc
       0.036725365 -0.00016911942 -0.016254535 -0.02037721
000340 a5 19 71 bd 99 cd 73 3d dd b6 23 bb 9d 69 ea ba
       -0.058862347 0.059522245 -0.0024980821 -0.0017884258
000350 e4 8d da 3b ec ff 81 bb 32 67 1d bd 7b e8 0d 3d
       0.0066697467 -0.003967276 -0.038428493 0.03464554
000360 91 1d 09 bd 2f b0 ed 3b 7c 98 00 3d 96 21 0b bd
       -0.033475462 0.0072536687 0.03139542 -0.033967577
000370 20 50 38 3c 9d bb a3 3d 90 35 12 3b 13 cc c7 3d
       0.011249572 0.07994769 0.0022309758 0.09755721
000380 bb e6 7d 3d 78 ca a7 3c 1b c2 10 bc d0 d7 06 3d
       0.06198762 0.020482287 -0.008835341 0.03292066
000390 06 25 83 3c fe 76 15 bd 0f 87 e2 3c ab 13 c8 bb
       0.016008865 -0.036490433 0.027652292 -0.00610586
0003a0 72 01 06 3d fb b0 27 3d 3d 88 55 bb d0 7f 1a 3d
       0.032716222 0.040940266 -0.0032582425 0.037719548
0003b0 98 d5 73 3d 6b 32 38 3d de 59 d5 3b f8 c9 49 3d
       0.05952987 0.044969957 0.006510957 0.049264878
0003c0 d2 e1 f2 3c e4 14 80 3d 4f f7 d0 bb 9c 6a 86 3c
       0.029648695 0.062539846 -0.0063771377 0.016408257
0003d0 af 53 88 bd 57 34 37 3b d1 de 59 3c 7a 37 1f bd
       -0.066565864 0.002795478 0.0132977525 -0.038871266
0003e0 61 f7 fa bb 08 32 dd 3b 6c 8e 8b bd 07 45 a6 3c
       -0.0076588844 0.006750349 -0.06814274 0.020296587
0003f0 c5 fa 47 bd 57 ee b6 bd 14 e6 6b bd b1 50 a5 3c
       -0.048823137 -0.089321785 -0.057592466 0.020180078

conv4.bias f4 [64]
000000 d7 3e 31 bd 1b 67 73 bd 5e a5 f9 bb d0 5f fb 3b
       -0.04327282 -0.0594245 -0.0076185903 0.007671334
000010 5b 57 4a 3b 0a 5f 91 bb cc 4c 4c 3c 7e 37 e2 bc
       0.0030874822 -0.0044363784 0.012469482 -0.027614351
000020 4a b5 c1 3b 9c c8 d6 3c 4f 08 a6 bc ff b9 bb 3a
       0.005911504 0.026218705 -0.020267634 0.0014322399
000030 3a 16 4a 3d 52 5e e1 3b 3e ef 59 3b 62 ec a5 3c
       0.049337603 0.006877699 0.0033254172 0.020254318
000040 93 86 29 3d 00 5b 32 bd 52 e1 27 bd fd 1e 2f bd
       0.041388106 -0.043543816 -0.040986367 -0.042754162
000050 7a 80 a4 3b 27 26 8c 3c d0 5e 0c bd 99 a9 b3 bc
       0.0050201984 0.017108036 -0.034270108 -0.021931456
000060 12 9f 84 bc 39 6b 44 bc 40 31 9a bc 82 50 48 bd
       -0.016189132 -0.0119884545 -0.018822312 -0.048904903
000070 26 e8 66 bc 17 cc 08 3d 94 f7 2f 3d 53 7b c9 bc
       -0.014093434 0.03339776 0.04296072 -0.024594938
000080 70 ec 46 bc b2 38 24 bd dd b9 2a 3d 67 b6 a4 3a
       -0.012141332 -0.04009313 0.04168116 0.0012566567
000090 bd 89 75 bc d1 9a 1b 3b 0b 18 32 3d 06 a8 e9 3b
       -0.014986453 0.00237434 0.04347996 0.0071306257
0000a0 d6 c4 5c 3d 3c fe 04 bd 44 ae fc bc 99 94 99 bc
       0.053898655 -0.03246902 -0.030844815 -0.018747615
0000b0 74 b4 16 3c 43 9d 83 3c e8 44 38 3d 56 3c 8c bc
       0.009198297 0.0160662 0.04498759 -0.017118614
0000c0 20 b7 40 3d 6d 99 82 bd be f9 c1 bc 8b a9 a3 bc
       0.04704964 -0.0637692 -0.023678657 -0.019978305
0000d0 d8 13 bb 3b 45 f9 f4 3c 9b 63 90 bb 2a 3a f1 bc
       0.0057091527 0.029904017 -0.004406405 -0.02944668
0000e0 47 a4 0f bd 4e 02 3f 3c a3 c7 7f bc 30 92 1a bc
       -0.035068776 0.011658264 -0.015611562 -0.009434268
0000f0 e1 2c cf bc 44 75 5f bd 43 aa 27 bc 5a af 81 3c
       -0.025289955 -0.054555193 -0.010233465 0.015830684

fc1.weight f4 [10, 1024]
000000 61 5a a2 bb 6b 68 d6 3b 0c 5c 10 bb 47 8d 07 3d
       -0.0049546217 0.0065432093 -0.002202752 0.033093717
000010 9c 34 ea bc 36 82 8e 3b 6b ab 1e bd f3 41 93 bd
       -0.02858954 0.0043490184 -0.038737696 -0.07190313
000020 c5 64 89 3c c7 a6 42 bd 16 a1 c7 bd f3 53 42 3a
       0.016771683 -0.047522333 -0.097475216 0.0007413022
000030 6d 26 1e 3d 9c 16 fb 3c 88 6b 81 3d 27 ae e6 bb
       0.038610864 0.03065043 0.06319338 -0.0070398035
000040 36 3b a3 3c 69 44 d1 3c 85 c4 73 3d 84 ad 10 3d
       0.019925695 0.025545316 0.059513588 0.035321727
000050 0d 97 22 3d 99 f3 9e 3c 54 68 56 bd ac d5 5a bd
       0.039694835 0.019403266 -0.05234559 -0.05342643
000060 5a a3 28 3d 0f ca 1b 3c ea 8a b8 bd 10 4a 24 bd
       0.04117141 0.009508624 -0.09010871 -0.040109694
000070 2f d3 20 3d 39 a5 3f bd a5 93 26 bd 3a f7 70 bc
       0.0392639 -0.046788428 -0.04066815 -0.014707381
000080 35 71 e3 bc 79 47 02 bd 03 58 cf 3c 08 0d dd bc
       -0.027763942 -0.031806443 0.025310522 -0.026983753
000090 f1 16 8d bd 6d df 49 3c 8f c3 90 3c 16 b7 83 bb
       -0.06889141 0.012321335 0.017671375 -0.0040196283
0000a0 b5 22 06 bc 0b 3d 2b bd 75 41 d7 bd d2 b9 2b 3d
       -0.008186986 -0.041806262 -0.10510532 0.04192526
0000b0 1c de 6c 3b 72 7e 9e 3b c1 53 20 bc c0 b8 1b 3d
       0.003614313 0.004836851 -0.0097855935 0.03801799
0000c0 95 54 ba bc 98 a5 d7 3c c7 4d 83 3b ad 98 c9 bc
       -0.02274541 0.026324078 0.0040070745 -0.024608934
0000d0 1d eb be bc 1c 6b 95 3c 78 bf d5 bc 84 62 7c 3c
       -0.02330547 0.01823955 -0.026092276 0.015404347
0000e0 ce b8 25 3c d7 1e 01 3b fb fc 55 3c eb 93 14 bc
       0.010114862 0.001970222 0.0130608035 -0.0090684695
0000f0 54 8a 99 bc b8 4a 46 3c c2 4f ce 3c 28 9e d5 bc
       -0.018742718 0.012102775 0.025184516 -0.026076391
000100 cc b3 cb bc e4 06 fc 3c 6e 39 df 3c dc 45 0a 3c
       -0.024866007 0.030765004 0.027249064 0.008439507
000110 26 ac 84 3c 6c 97 91 bc 93 d4 0e bc e0 f5 9f bc
       0.016195368 -0.017772399 -0.008717674 -0.019526422
000120 a4 da d0 3c 78 ca b3 3c 76 9b 3e bc 46 d7 92 bc
       0.025494881 0.02194713 -0.011633744 -0.017924916
000130 14 63 98 bc 68 08 ee bc 70 90 55 bc b0 91 3c 3c
       -0.018601932 -0.029056743 -0.013034925 0.011509344
000140 9b f9 2a bd dd 8e 78 bd a0 1b 40 3d 7f 51 4b 3c
       -0.04174195 -0.06068312 0.046901345 0.012409567
000150 2a 71 22 bd 23 34 d8 3d 52 ba 7a 3d 09 db ac 3c
       -0.039658703 0.10556819 0.061212845 0.021100538
000160 9c 39 be bc bb 79 b8 bc 82 4b 3d bd 11 6f ea bb
       -0.02322083 -0.022518983 -0.046214588 -0.0071543534
000170 dc 5a 3a 3d b1 97 8c 3d 77 5c fd bc cd 55 16 3c
       0.045496807 0.0686487 -0.03092788 0.00917573
000180 a2 d6 2e bd 5d f9 15 b9 65 9e 84 bd 55 75 bc bd
       -0.04268516 -0.00014302642 -0.06475524 -0.09202067
000190 1c 9f 12 3d 0a 39 02 3d 02 3c 4e bd 1e 49 87 3d
       0.03579627 0.031792678 -0.050350197 0.06605743
0001a0 46 38 9a 3b 20 31 3f bd fb af 21 3a 41 aa cc 3c
       0.0047064153 -0.04667771 0.0006167886 0.024983527
0001b0 54 b7 78 bd 08 a7 32 3c 0e 1d 18 3d 37 6e 8f 3d
       -0.06072171 0.010904081 0.037137084 0.07003444
0001c0 a1 45 34 3d cf 10 4f b9 cf 09 bb bc 72 c4 06 3c
       0.044011716 -0.0001974732 -0.022831826 0.008225547
0001d0 fb 65 92 bc 7b 90 1c 3c 40 06 be bc ce 06 8a 3c
       -0.017870894 0.009555931 -0.02319634 0.016848948
0001e0 39 a8 11 3c 64 85 84 bc 61 4b a0 bd e2 f1 32 bd
       0.008890205 -0.016176887 -0.078268774 -0.04368771
0001f0 d5 c0 53 3d aa 4f 24 bd 58 c6 33 bd f5 2f c7 bc
       0.05169757 -0.040115036 -0.043890327 -0.02431486
000200 de ca e7 3c 90 ff cc bc d3 f5 b8 bb 89 2b 12 bc
       0.028294977 -0.025024205 -0.005644539 -0.008921512
000210 73 00 04 3c 96 16 cf bd 74 ad be bd e5 1f 40 bd
       0.008056748 -0.1011173 -0.09310427 -0.046905417
000220 e9 b1 74 3d bc 4c b0 bc cf e6 81 3b 15 b7 3b 3c
       0.05973998 -0.021520965 0.003964282 0.011457224
000230 82 7e b1 3c 8b 33 22 3d 99 b7 df 3a 1b 08 b0 bb
       0.021666769 0.039599936 0.0017068266 -0.00537206
000240 c4 1c 16 bd 5c 4c 6e bd a5 b4 30 bc 46 1c c6 bd
       -0.036648527 -0.05817829 -0.0107852565 -0.096733615
000250 6f 15 ed bc fa 58 df bc d1 87 4c bd 6d 8d 8b bd
       -0.028940884 -0.027264107 -0.049934212 -0.06814084
000260 2f 24 fd 3c 2a 19 45 bd 2c 3e ab 3c 36 be 46 3d
       0.030901043 -0.0481197 0.02090367 0.048521243
000270 87 e9 83 3c 4f 5e 09 bc ae ea 46 3d 81 11 98 3d
       0.016102565 -0.008384301 0.04856365 0.074252136
000280 6e 3e 3d bc 1d 93 da bd 65 e3 10 3d 7a 33 68 3d
       -0.011550529 -0.10672591 0.03537311 0.056689717
000290 2a ed 66 bc 5e a5 4a 3d f3 df f0 3c f9 1a 36 3c
       -0.01409463 0.049474113 0.029403662 0.011114829
0002a0 de 1c c9 bd 1d f2 a3 bd 4c 6f 0b 3d 7e b2 78 bd
       -0.09819959 -0.08005164 0.034041688 -0.0607171
0002b0 80 fa 2d bd a5 be 3a 3b 49 8c 95 bc 76 5e 5e bd
       -0.042475224 0.002849498 -0.01825537 -0.054289304
0002c0 04 b9 37 bd 9f 7b 4b 3d 7f 79 b3 3c 42 50 dc bc
       -0.04485418 0.04967844 0.02190852 -0.026893739
0002d0 5a da 75 bc 6f 71 ef bc 66 a3 57 bd 62 69 67 3c
       -0.015005672 -0.029228894 -0.052646063 0.014124246
0002e0 30 22 9d 3c ed 23 d5 bd 71 09 8d bd 38 8e 6e 3d
       0.019181341 -0.10407243 -0.068865664 0.0582411
0002f0 0d ad c2 3c c4 cb a9 3d 68 be ff bc 8b b5 80 b8
       0.023764158 0.08290818 -0.031218722 -6.137331e-05
000300 02 f9 49 bb 68 ac 4c bc 26 16 ff bc 85 cc 2b bd
       -0.0030818586 -0.012492277 -0.03113849 -0.041943092
000310 4e 84 68 3d 23 5f 8c bc b8 c8 d4 bd c5 df c9 3c
       0.0567668 -0.017135208 -0.103898466 0.024642834
000320 d5 49 f3 3b c5 d5 a7 bc 31 d7 48 bb bc f2 b1 3d
       0.007424573 -0.020487675 -0.0030645842 0.08688876
000330 13 f2 8f 3c 16 2f df bd bd c2 87 bd e6 e6 44 bd
       0.017571485 -0.10897653 -0.0662894 -0.048071764
000340 d3 30 19 bd 4c 02 1f bd db 9c 74 bc b0 1b 8a ba
       -0.037400078 -0.03882055 -0.014929975 -0.0010536816
000350 53 d4 25 bb 78 66 25 bd 1a 39 18 3c 4a 84 29 3a
       -0.0025303557 -0.040380925 0.009290958 0.0006466551
000360 a6 a5 a8 3c eb b3 af 3c 61 69 cd bc a0 c2 c9 3c
       0.0205868 0.021448096 -0.025074663 0.024628937
000370 59 3e 21 bc 3e 92 a4 bc 09 9f 80 bc f5 30 db bc
       -0.009841525 -0.020089265 -0.015700834 -0.026756743
000380 70 c3 53 bd 20 44 ae 3c 23 e8 97 3c 7d 89 63 3c
       -0.051700056 0.021272719 0.018543309 0.01388776
000390 41 84 92 bb 34 e1 62 3d dd db ab bc 96 58 bd ba
       -0.0044713323 0.05539055 -0.020978862 -0.0014445956
0003a0 2f 20 14 3b 20 73 4a 3c 6e de 14 bd ad e6 d9 bb
       0.002260219 0.0123565495 -0.036344938 -0.006649813
0003b0 d0 28 ad 3c 53 7c 64 3c b8 5f 7a 3c 30 79 53 bb
       0.021137625 0.013945657 0.01528161 -0.0032268278
0003c0 10 83 11 bd 2c 31 fd 3a 7a 76 8c bc b7 70 86 3c
       -0.03552538 0.0019317023 -0.017146338 0.016411169
0003d0 6b 76 12 3d a6 66 b6 bc f4 99 97 bc 7a 4e e5 ba
       0.035757463 -0.022265743 -0.018506028 -0.0017494701
0003e0 e4 2b 5c 3d d5 89 1d 3c 00 cb 78 bd e8 d6 94 3c
       0.053752795 0.009615381 -0.06074047 0.018168882
0003f0 e4 2c d4 3c bc 64 89 bc ea f1 e2 3c e0 56 3f 3d
       0.025900312 -0.016771667 0.027703244 0.04671371

fc1.bias f4 [10]
000000 85 43 03 3d 65 36 38 3d 79 bc e3 bc df 3c f9 bb
       0.032046814 0.04497375 -0.027799832 -0.0076061334
000010 33 ee 55 3c f7 49 c4 3c f5 3c e4 bb 06 e5 01 bd
       0.013057279 0.02396105 -0.0069652745 -0.031712554
000020 ef d2 ee 3c b8 39 a7 bc
       0.029153315 -0.020413265
